super_res_model.pth (torch, 281432 bytes, 6 tensors)

weight f4 [64, 3, 9, 9]
0.014811963 -0.01854817 -0.0011667493 0.03991247 -0.028566351 0.00049235485 -0.0004416643 -0.024916286
0.028536951 0.053784262 -0.005066749 0.040917177 0.031082148 0.009146092 -0.00037486912 0.0072234855
-0.03605407 0.027167428 0.054627866 0.005557992 -0.039712314 -0.024145128 -0.03970053 0.056056824
-0.040382314 -0.03873997 0.041057356 -0.0037818358 0.02144264 -0.022403846 0.030753957 0.05348209
0.021460518 0.051027153 -0.019327464 -0.004382797 -0.038345616 -0.027169947 -0.017582472 -0.029438594
0.031104703 0.0021155544 0.006136185 0.007107002 -0.03085842 -0.012229113 -0.057894204 -0.026265474
-0.007266994 -0.033488248 0.011146952 0.043049313 0.031342953 0.021984048 0.02815549 -0.027914966
-0.011005033 -0.05926378 -0.03246327 -0.03400072 0.06154622 0.058592413 0.052602366 -0.0034719543
-0.0056767105 -0.027696086 0.0029877373 -0.041829497 0.05424369 -0.017652042 -0.06086516 -0.037707996
-0.057387598 -0.060544558 0.05668105 0.028221315 -0.050581593 -0.005356134 -0.043422 0.016786069
0.053256255 0.051407516 0.05096367 0.03209154 0.04970845 0.0021072163 0.048761778 -0.008416291
-0.0040716096 -0.05089089 -0.06125839 0.021904947 0.06536659 0.041696075 0.024057422 -0.05998985
0.012331262 0.006116311 0.0014048949 -0.0118130725 0.012950765 0.05608242 -0.05737572 0.062009722
-0.038268235 0.028810803 0.048927326 0.03431725 0.0017899091 0.013264511 0.015167879 -0.024920313
-0.015564507 0.0022747265 -0.013442733 -0.033031944 0.040000014 -0.035286035 0.027390111 0.06274045
-0.0021310437 -0.030784002 -0.059107374 -0.008744397 0.036707766 0.056363374 0.047941223 -0.0052783163
0.064431794 -0.051603287 0.0036758191 -0.035640385 -0.052167356 -0.022228763 -0.046875842 0.009567627
0.03257962 -0.040549908 0.03062231 -0.04235293 -0.031841893 -0.049517464 0.05745582 -0.028212009
-0.04892098 0.0011442315 0.030377837 0.024163486 0.017118696 0.027696345 0.0024327713 0.05853098
0.015082722 -0.05165393 -0.01667482 0.0086903 -0.009918846 -0.045299917 -0.0036500853 -0.025035257
0.026857086 -0.0078752395 -0.03603156 -0.051935457 0.0021355895 -0.031775244 0.053743806 -0.012458036
-0.007827895 0.01990725 0.018412367 -0.051707815 0.017055277 0.014471201 -0.0013154454 0.050029337
0.045538384 -0.01285022 -0.042443328 0.018492928 -0.014808239 0.0058946805 -0.06164174 -0.00046637334
-0.024932327 0.01972722 0.0630271 0.04632598 -0.06150516 0.043382056 -0.057438705 0.0017715239
0.023946693 -0.010736103 -0.05667672 0.023876544 0.0401473 0.06295312 -0.025463924 0.023665631
-0.024443949 -0.005670396 -0.057763454 -0.0056629386 -0.00084084534 -0.040857393 0.01805783 -0.0069433935
0.052991726 0.038794626 -0.044224463 0.042669214 -0.053430304 -0.018510392 -0.056921445 0.02350294
-0.022008192 0.003967403 0.04035937 0.009435606 0.018616037 -0.054419935 -0.033254776 0.022103457
0.038093664 -0.0059315115 -0.051593218 -0.054465763 0.04019618 0.03423835 0.0662114 -0.055402838
-0.023007499 0.021990124 0.0320094 -0.040006448 -0.0062955446 0.051301684 -0.05014961 0.0032232911
-0.02939671 0.051891394 0.05764887 -0.0074167973 0.02313604 0.039237764 0.054637887 0.044598352
0.025787294 0.041219078 -0.02184177 -0.054740768 0.038008258 -0.031602256 0.0281907 -0.046061397
00000000: e0ad 723c 55f2 97bc 9ced 98ba 427b 233d
00000010: fb03 eabc 6011 013a 2e8f e7b9 3d1d ccbc
00000020: 53c6 e93c e34c 5c3d f906 a6bb c598 273d
00000030: fd9f fe3c 7ed9 153c 158a c4b9 fdb2 ec3b
00000040: 6fad 13bd 3a8e de3c 78c1 5f3d d11f b63b
00000050: 61a9 22bd 01cc c5bc 069d 22bd d79b 653d
00000060: ed67 25bd cead 1ebd c22b 283d add8 77bb
00000070: 7aa8 af3c 4588 b7bc b9ef fb3c 0910 5b3d
00000080: f8cd af3c d901 513d a154 9ebc 919d 8fbb
00000090: 4b10 1dbd 8293 debc 1e09 90bc 3529 f1bc
000000a0: 4acf fe3c 1da5 0a3b 0d12 c93b dbe1 e83b
000000b0: ccca fcbc 9e5c 48bc 7922 6dbd b12a d7bc
000000c0: f71f eebb f92a 09bd b5a1 363c 7a54 303d
000000d0: 7861 003d e417 b43c 58a6 e63c edad e4bc
000000e0: 744e 34bc 94be 72bd 35f8 04bd 5744 0bbd
000000f0: e417 7c3d 99fe 6f3d 9475 573d ba89 63bb
00000100: b303 babb e7e2 e2bc eacd 433b 6855 2bbd
00000110: a22e 5e3d 049b 90bc bf4d 79bd b373 1abd
00000120: 420f 6bbd 92fd 77bd 642a 683d 6330 e73c
00000130: a52e 4fbd 8282 afbb 44db 31bd f082 893c
00000140: 3b23 5a3d b090 523d 48bf 503d 6b72 033d
00000150: 169b 4b3d 3919 0a3b 6eba 473d 7ce4 09bc
00000160: 236b 85bb f772 50bd 14ea 7abd 0172 b33c
00000170: ebde 853d 81c9 2a3d 1214 c53c ebb7 75bd
00000180: 1009 4a3c 566b c83b 7324 b83a 9e8b 41bc
00000190: 722f 543c aeb6 653d ce02 6bbd e8fd 7d3d
000001a0: 27bf 1cbd a204 ec3c 0568 483d 3f90 0c3d
000001b0: 629b ea3a 6453 593c b282 783c af25 ccbc
000001c0: 4602 7fbc 9413 153b e93e 5cbc 814c 07bd
000001d0: 0ed7 233d 1788 10bd 3a61 e03c 117e 803d
000001e0: fba8 0bbb bb2e fcbc 931a 72bd a944 0fbc
000001f0: e25a 163d 48dd 663d 045e 443d baf5 acbb
00000200: d1f4 833d f85d 53bd 03e6 703b a7fb 11bd
00000210: 70ad 55bd 1819 b6bc e200 40bd 89c1 1c3c
00000220: 3572 053d a917 26bd a3db fa3c 447a 2dbd
00000230: a56c 02bd d3d2 4abd cb56 6b3d df1c e7bc
00000240: 5e61 48bd 0afa 953a f1da f83c 81f2 c53c
00000250: 823c 8c3c 72e3 e23c 216f 1f3b 2ebe 6f3d
00000260: 851d 773c 1293 53bd a299 88bc c361 0e3c
00000270: a882 22bc 688c 39bd 4536 6fbb bd16 cdbc
00000280: 6403 dc3c 2607 01bc d495 13bd 46ba 54bd
00000290: 3ff5 0b3b c226 02bd 7722 5c3d ca1c 4cbc
000002a0: 9240 00bc 8714 a33c 88d5 963c 93cb 53bd
000002b0: 82b7 8b3c 9e18 6d3c 066b acba 90eb 4c3d
000002c0: 7586 3a3d bb89 52bc 0ed9 2dbd 7b7e 973c
000002d0: 429e 72bc 2a28 c13b 0d7c 7cbd 9283 f4b9
000002e0: e13e ccbc fb9a a13c 5a14 813d 50c0 3d3d
000002f0: d6ec 7bbd 62b1 313d d944 6bbd 7a32 e83a
00000300: db2b c43c 7be6 2fbc d925 68bd be98 c33c
00000310: 7f71 243d 91ed 803d b899 d0bc 6dde c13c
00000320: ad3e c8bc bbce b9bb 5f99 6cbd 2c90 b9bb
00000330: 2d6c 5cba 155a 27bd 04ee 933c 6885 e3bb
00000340: da0d 593d 1de7 1e3d b624 35bd eac5 2e3d
00000350: bcd9 5abd 1ba3 97bc 7626 69bd 3d89 c03c
00000360: 864a b4bc fd00 823b de4f 253d cd97 1a3c
00000370: a980 983c 70e7 5ebd 2936 08bd 4f12 b53c
00000380: 1a08 1c3d 205d c2bb 6953 53bd 7e17 5fbd
00000390: c0a4 243d 833d 0c3d d899 873d 16ee 62bd
000003a0: 397a bcbc a224 b43c 4a1c 033d cddd 23bd
000003b0: db4a cebb b721 523d ad69 4dbd da3d 533b
000003c0: 5fd1 f0bc 128c 543d 3921 6c3d 9b08 f3bb
000003d0: cb87 bd3c c7b7 203d facb 5f3d c3ac 363d
000003e0: e03f d33c 56d5 283d 83ed b2bc db37 60bd
000003f0: 8cae 1b3d 5e71 01bd 2ff0 e63c e0aa 3cbd

bias f4 [64]
0.066035695 0.05172884 0.06185946 -0.025480207 -0.022902196 0.06483136 0.026853789 -0.0077308095
-0.059203837 0.06958118 -0.018992811 -0.014789643 -0.021650376 -0.050321437 -0.028159847 0.015926952
-0.060693398 -0.02915484 0.04101478 -0.028810216 0.017832376 -0.057337414 0.023199169 0.01984197
0.010720517 0.023162039 0.040151227 0.0058390526 -0.05846421 0.00987562 0.027464066 -0.009924163
0.012203189 0.012851597 -0.01864061 -0.0316334 0.040263157 -0.010304686 0.05917579 -0.00015358216
-0.048032977 -0.0003039785 0.059442524 0.047473866 -0.018286688 -0.021274455 0.009235481 0.058081508
0.012335176 0.031507175 0.041804854 0.040999796 -0.031520545 -0.020239621 0.04003809 -0.050010584
0.018863503 0.052869935 -0.007114877 -0.011886539 -0.0054656593 0.009461922 0.033632554 0.0024812163
00000000: b93d 873d 9fe1 533d 5860 7d3d debb d0bc
00000010: 639d bbbc 4ec6 843d 7afc db3c bb52 fdbb
00000020: b97f 72bd 9480 8e3d d096 9bbc 4250 72bc
00000030: 215c b1bc da1d 4ebd 7baf e6bc 3d79 823c
00000040: a499 78bd 22d6 eebc 1dff 273d 6703 ecbc
00000050: 3415 923c a3da 6abd 2f0c be3c a18b a23c
00000060: 1ba5 2f3c 51be bd3c 9d75 243d 8655 bf3b
00000070: 2b78 6fbd 5acd 213c 52fc e03c f598 22bc
00000080: e2ef 473c 818f 523c 31b4 98bc 0692 01bd
00000090: fbea 243d fcd4 28bc 5062 723d e60a 21b9
000000a0: 3abe 44bd 4e5f 9fb9 017a 733d f573 423d
000000b0: f7cd 95bc c447 aebc 6a50 173c e0e6 6d3d
000000c0: 7a19 4a3c ab0d 013d 913b 2b3d 67ef 273d
000000d0: b01b 01bd 90cd a5bc fbfe 233d e6d7 4cbd
000000e0: a287 9a3c 258e 583d ea23 e9bb c2bf 42bc
000000f0: 4619 b3bb 2d06 1b3c 4ac2 093d e79b 223b

weight f4 [32, 64, 5, 5]
0.00023882819 0.021606019 -0.002646009 -0.004622869 -0.010445284 -0.023633601 -0.023083266 -0.0076306188
0.024505343 -0.010752904 0.012808937 0.010404743 -0.00336566 0.005352344 0.010122588 0.021855429
0.010794414 0.017447025 -0.012817037 -0.019683817 -0.008334311 -0.007051734 0.013847136 -0.008199028
-0.022372989 -0.0052202586 0.0034682727 0.027109278 -0.007562547 -0.0097585665 0.011988959 -0.013652207
0.025795456 0.0024099285 0.015751623 -0.01937513 -0.016468033 0.0021110615 0.018558849 0.008211514
-0.02200368 -0.004336817 -0.0015408039 0.016885797 0.006019691 -0.022871334 0.017402135 -0.0097284615
-0.017963458 -0.022304704 0.0016659936 -0.012711974 -0.005227161 -0.0111965975 0.001465007 0.019878488
-0.009513871 -0.0010599318 -0.021704363 0.020281006 0.015756577 -0.00087151624 -0.018746076 0.017376594
0.021326078 0.008009434 0.014817901 0.007975984 0.012298753 0.014934224 0.015529017 -0.02138244
0.014406006 0.0048001264 -0.017025756 -0.0015265733 -0.0041295406 0.015853366 -0.0043706317 0.007687016
0.024614332 -0.013174632 0.0054647927 -0.010331271 -0.017565966 -0.011963302 0.015829379 0.02824823
-0.0018001086 0.021098938 -0.013050401 -0.0047582737 -0.007882486 -0.015250776 0.019014394 0.003682997
-0.018670266 -0.017901082 0.027592847 0.0266731 -0.023073329 -0.011071716 0.030246932 -0.005622808
0.015347055 0.012550868 0.004290514 0.019493774 0.02912835 -0.007362305 0.0043953108 -0.011201729
-0.0025026414 0.0043861647 0.025722852 -0.019768778 -0.014822329 -0.0044412496 0.027763955 0.012040424
0.0084335795 -0.016021797 0.031245 0.024204256 -0.0143301515 -0.024177572 -0.01563962 0.017337391
-0.024872202 -0.028728353 -0.021067921 0.011478504 -0.022228515 -0.015019785 0.009102235 0.0065877805
-0.02083231 -0.0082815485 -0.0071219937 -0.0039754747 0.009521961 0.013933328 0.0074628084 -0.020511553
0.023599962 -0.015562402 0.0151878735 -0.009149861 0.0025536208 -0.01014793 -0.019153923 0.0066885552
0.011640645 -0.0002787677 -0.023546228 0.026396196 0.02202669 -0.015248544 0.0009256534 -0.008687778
0.0065654526 -0.010887733 -0.021220192 -0.014850851 -0.004005833 -0.0136329755 0.021682046 -0.01042968
-0.0067626936 0.021760307 -0.013934598 0.021458505 0.00018460001 0.014865408 -0.018625256 -0.022535598
-0.014757065 -0.018611154 0.024383847 -0.016114261 -0.009673096 -0.007095454 0.0011191925 0.015488644
-0.021031551 -0.002311096 -0.0082600815 -0.011171175 0.0012930069 -0.015775718 -0.012803548 0.018567825
-0.0025318894 0.0011613658 0.012967744 -0.0010227391 -0.0038335833 -0.018520603 -0.009249645 -0.020250758
0.02639583 -0.010562002 0.021988388 -0.008013257 -0.010739577 -0.0056163794 -0.019971823 0.025418831
-0.011798474 0.023182992 -0.004209914 0.007048989 -0.0060201976 0.01698937 -0.004447172 0.004030599
-0.016932763 0.017279461 0.018411424 0.01194902 -0.008277756 0.005200635 -0.0024632276 0.011750715
-0.021922259 0.0011701125 0.023430847 -0.013145519 -0.0061762966 0.022716586 -0.015543682 0.019561028
0.017033126 0.024370605 0.011102012 0.01910527 -0.003988422 0.024424521 0.024824036 0.00051146507
0.028077977 0.026750285 0.012366994 0.007879911 0.0048945183 0.021901201 0.010430632 0.004073095
0.012881044 -0.019259961 -0.0146927945 -0.025029544 -0.0075526433 0.020533012 -0.015531619 0.00021998948
00000000: f46d 7a39 1bff b03c aa68 2dbb 707b 97bb
00000010: b222 2bbc 419b c1bc 1e19 bdbc 450a fabb
00000020: 6ebf c83c f32c 30bc 93dc 513c a878 2a3c
00000030: 6892 5cbb b762 af3b 36d9 253c 280a b33c
00000040: 0edb 303c 10ed 8e3c 8dfe 51bc f53f a1bc
00000050: a28c 08bc 3b12 e7bb 19df 623c 3755 06bc
00000060: 8f47 b7bc b40e abbb f64b 633b 4714 de3c
00000070: 3ecf f7bb 65e2 1fbc 576d 443c 82ad 5fbc
00000080: fe50 d33c e4ef 1d3b 8c09 813c 98b8 9ebc
00000090: f8e7 86bc bc59 0a3b ba08 983c 9689 063c
000000a0: 1041 b4bc dc1b 8ebb cdf4 c9ba 1554 8a3c
000000b0: d440 c53b aa5c bbbc ec8e 8e3c 2064 1fbc
000000c0: 1a28 93bc 5bb8 b6bc 785d da3a e245 50bc
000000d0: 9b48 abbb ef71 37bc 7a05 c03a 36d8 a23c
000000e0: 11e0 1bbc 69ed 8aba 59cd b1bc 5a24 a63c
000000f0: f013 813c 7776 64ba 5f91 99bc 5c59 8e3c
00000100: 07b4 ae3c 003a 033c c8c6 723c b4ad 023c
00000110: b580 493c adae 743c 6b6d 7e3c 3a2a afbc
00000120: 2b07 6c3c 614a 9d3b 9979 8bbc 4d17 c8ba
00000130: 1951 87bb ebde 813c 8437 8fbb 5de3 fb3b
00000140: ffa3 c93c 69da 57bc 0112 b33b 7e44 29bc
00000150: 80e6 8fbc ba01 44bc 9dac 813c d568 e73c
00000160: 9ff1 ebba aed7 ac3c 59d1 55bc 4beb 9bbb
00000170: 8b25 01bc 64de 79bc 13c4 9b3c 705e 713b
00000180: 63f2 98bc 4aa5 92bc 650a e23c 8c81 da3c
00000190: 4704 bdbc 2566 35bc 6ac8 f73c 883f b8bb
000001a0: 3772 7b3c 28a2 4d3c 7197 8c3b 68b1 9f3c
000001b0: 949e ee3c 7e3f f1bb 8a06 903b 7587 37bc
000001c0: 5b03 24bb d1b9 8f3b bbb8 d23c 22f2 a1bc
000001d0: 5bd9 72bc e787 91bb 3c71 e33c 3345 453c
000001e0: ff2c 0a3c 2540 83bc 84f5 ff3c 0148 c63c
000001f0: 03c9 6abc 0b10 c6bc a91e 80bc 2507 8e3c
00000200: cac0 cbbc b957 ebbc a296 acbc 5610 3c3c
00000210: 9318 b6bc 8b15 76bc 8a21 153c 4fde d73b
00000220: 85a8 aabc 55af 07bc 9d5f e9bb b344 82bb
00000230: 0002 1c3c 9d48 643c 938a f43b d807 a8bc
00000240: b554 c13c 72f9 7ebc 8fd6 783c 4ce9 15bc
00000250: a65a 273b 8143 26bc b0e8 9cbc ab2b db3b
00000260: 67b8 3e3c 9127 92b9 05e4 c0bc d63c d83c
00000270: 5171 b43c 07d5 79bc 8ca7 723a 2f57 0ebc
00000280: 0223 d73b 7662 32bc f8d5 adbc fc50 73bc
00000290: 5d43 83bb d85c 5fbc 8c9e b13c 40e1 2abc
000002a0: 9699 ddbb ac42 b23c f14d 64bc bfc9 af3c
000002b0: 3091 4139 0a8e 733c fe93 98bc 939c b8bc
000002c0: 9ec7 71bc 6b76 98bc a2c0 c73c 0e02 84bc
000002d0: e87b 1ebc fb80 e8bb deb1 923a 15c4 7d3c
000002e0: 5c4a acbc c275 17bb 4b55 07bc 4e07 37bc
000002f0: 1d7a a93a 143c 81bc f9c5 51bc 8d1b 983c
00000300: 0eee 25bb f838 983a a976 543c 6e0d 86ba
00000310: db3c 7bbb 85b8 97bc d38b 17bc ebe4 a5bc
00000320: 113c d83c 3f0c 2dbc fe20 b43c 094a 03bc
00000330: 0df5 2fbc 9b09 b8bb f39b a3bc 273b d03c
00000340: 634e 41bc 42ea bd3c 51f3 89bb 35fb e63b
00000350: 1445 c5bb 4b2d 8b3c 95b9 91bb 1d13 843b
00000360: 94b6 8abc a88d 8d3c 8ed3 963c d3c5 433c
00000370: 6d9f 07bc 176a aa3b 1a6e 21bb 1286 403c
00000380: 4f96 b3bc 765e 993a 0cf2 bf3c 4e60 57bc
00000390: 8862 cabb 2218 ba3c edaa 7ebc 733e a03c
000003a0: 0e89 8b3c dda4 c73c 37e5 353c a882 9c3c
000003b0: 4fb1 82bb ef15 c83c c75b cb3c d713 063a
000003c0: c903 e63c 6a23 db3c ef9e 4a3c be1a 013c
000003d0: 3262 a03b 266a b33c 3ee5 2a3c 9977 853b
000003e0: 040b 533c 11c7 9dbc 0cba 70bc c20a cdbc
000003f0: 2a7c f7bb d934 a83c 5578 7ebc faac 6639

bias f4 [32]
0.020893116 -0.013782102 -0.009916599 -0.007922924 0.024383852 0.003621294 -0.011886255 0.022292193
-0.013444963 0.0007441819 -0.016910406 -0.012138144 -0.008031426 -0.022338737 0.015737364 0.011872236
-0.0012138712 -0.013417758 0.024813721 -0.013149682 -0.008680079 0.008571487 -0.019309286 0.0045611802
0.0024950122 0.013610892 0.015222307 0.013538658 -0.019372918 0.010424739 0.019953439 0.017439364
00000000: 0a28 ab3c 53ce 61bc 3b79 22bc 27cf 01bc
00000010: a5c0 c73c 3b53 6d3b 91be 42bc 1e9e b63c
00000020: 4348 5cbc 3415 433a b187 8abc 11df 46bc
00000030: 3e96 03bc baff b6bc a5eb 803c c483 423c
00000040: c21a 9fba 28d6 5bbc 2546 cb3c c471 57bc
00000050: e436 0ebc 6c6f 0c3c 822e 9ebc f475 953b
00000060: 5c83 233b 3800 5f3c fc66 793c 3fd1 5d3c
00000070: f4b3 9ebc 86cc 2a3c 6575 a33c ffdc 8e3c

weight f4 [3, 32, 5, 5]
-0.014432078 0.027332742 0.028604697 -0.022333797 0.03281796 -0.0097329505 -0.03275828 -0.025499597
0.0143898465 -0.033163782 -0.01653714 0.011250343 -0.023924166 0.027875178 0.035899576 0.034711793
-0.028533667 0.021497156 -0.013177347 -0.0156213315 0.03455493 0.0019339848 -0.026349038 -0.025511237
-0.0127034625 -0.016802704 0.030245388 -0.009339111 -0.004765588 -0.000367989 -0.007483479 0.006160224
0.021469846 0.018322874 0.018472334 0.008289099 0.013417091 -0.034197196 -0.03154287 0.021888759
-0.013241371 0.017943855 -0.010515291 0.010494658 0.03501022 -0.028289096 0.028459443 0.012325531
0.009256362 0.026749909 0.012741585 0.0047067055 -0.025879106 -0.032931075 0.007440884 -0.008500029
0.032519832 -0.0011198065 -0.007169255 0.015214375 0.009428904 0.026145838 0.025267828 0.01054802
0.019534208 -0.01681341 -0.03371276 -0.00342724 0.021927303 0.0044715363 -0.007866177 -0.025901143
0.0022079984 0.030941417 0.009244854 -0.017092155 0.01687781 -0.009925208 0.013616388 0.021391056
0.004571987 -0.059104364 -0.06278105 -0.014605758 -0.009188413 0.04094231 -0.02100722 -0.04520328
-0.0061972784 0.047404654 0.051299255 -0.016072921 -0.066501744 0.023671132 0.0030001176 0.021705259
-0.015407892 -0.04523081 -0.010343776 -0.0010400764 0.000808721 0.030489579 0.02644133 0.044550464
0.048250757 -0.004792148 0.04065343 0.011844021 0.0318477 0.015835663 0.051438816 0.08228399
0.119659595 0.09743481 0.057428587 0.012821279 0.03914952 0.056381438 0.05304675 0.019254424
-0.01289392 0.030675367 0.020946873 0.023111375 0.036503106 0.015873227 0.03483024 0.0017067731
0.023758858 0.031571575 0.030887598 -0.025792645 0.017735869 0.026823347 -0.018825201 -0.00938634
0.005924992 0.035268623 -0.002458941 0.0020096092 0.013140093 0.024741061 0.031985607 -0.022695197
-0.0013080136 -0.03212613 0.012845029 -0.011138134 0.029989274 0.012467854 0.011146836 0.021620458
0.017767247 -0.030883165 0.009509471 -0.010790456 -0.032519866 -0.01325302 -0.023219379 -0.02727719
0.033551898 -0.013013237 -0.0038127946 -0.012684765 -0.0013185884 0.013684644 0.026118666 0.03318692
-0.019950239 -0.023768917 -0.025650334 -0.034206945 0.024831196 -0.0027176791 -0.010746989 -0.0032093672
0.01210272 0.018475266 0.011786969 0.031901315 0.011166728 -0.014146756 0.01971638 -0.010203306
-0.0317605 -0.010473944 0.027209911 0.030155897 -0.015489875 0.014225947 -0.030907454 0.029490003
-0.027241966 0.016800018 0.032157317 0.02636255 -0.009587103 0.0027459222 0.005062446 0.021541853
-0.02310662 -0.0029458362 -0.011349485 -0.037099764 -0.007718123 0.009599972 0.018292774 0.01878035
-0.00060565205 -0.03604623 0.0069835903 -0.012353096 -0.0025277326 -0.018421033 0.0074261557 -0.0074447603
0.024184126 0.0143015785 -0.014427366 0.034288924 -0.020845393 0.03144104 -0.013087621 -0.021080455
-0.009069198 0.020801615 0.03497335 -0.012881991 0.03055345 0.0330288 0.028990833 -0.023049481
0.00010040888 0.003172084 0.018633867 -0.010570998 0.023745798 -0.0065638702 0.0046502477 0.0048143496
-0.02217082 0.0152624715 -0.002795174 0.00463511 0.019793795 -0.0049351756 -0.02548515 0.0047700354
0.0041814423 -0.028868878 0.018007062 0.0053247553 0.015833806 -0.024369754 -0.026867716 0.025951779
00000000: 8674 6cbc eae8 df3c 6654 ea3c 5ef5 b6bc
00000010: 206c 063d f476 1fbc 8c2d 06bd 88e4 d0bc
00000020: 64c3 6b3c bfd6 07bd e578 87bc 5c53 383c
00000030: 9dfc c3bc 7c5a e43c 6f0b 133d f42d 0e3d
00000040: 70bf e9bc ce1a b03c cde5 57bc 9df0 7fbc
00000050: 7889 0d3d c37d fd3a f0d9 d7bc f1fc d0bc
00000060: 2f22 50bc d3a5 89bc 2dc5 f73c 1203 19bc
00000070: a628 9cbb a6ee c0b9 f937 f5bb b4db c93b
00000080: 88e1 af3c da19 963c 4b53 973c 00cf 073c
00000090: 5cd3 5b3c 5c12 0cbd 1933 01bd 0e50 b33c
000000a0: 56f2 58bc fefe 923c 5448 2cbc c9f1 2b3c
000000b0: e066 0f3d 89be e7bc c723 e93c 06f1 493c
000000c0: ffa7 173c a022 db3c 15c2 503c b53a 9a3b
000000d0: 6b00 d4bc bce2 06bd a9d2 f33b b543 0bbc
000000e0: 8433 053d 79c6 92ba 12ec eabb b745 793c
000000f0: b17b 1a3c cc2f d63c 7afe ce3c 9ad1 2c3c
00000100: 3406 a03c 47bc 89bc 6416 0abd 8c9b 60bb
00000110: e3a0 b33c f785 923b 23e1 00bc a22e d4bc
00000120: 11b4 103b db78 fd3c ba77 173c d904 8cbc
00000130: 5543 8a3c 579d 22bc 4517 5f3c 4c3c af3c
00000140: 9bd0 953b 6b17 72bd 5a93 80bd fd4c 6fbc
00000150: ff8a 16bc 20b3 273d 5517 acbc 1327 39bd
00000160: 8a12 cbbb 622b 423d 2b1f 523d 5cab 83bc
00000170: 1132 88bd f6e9 c13c 9f9d 443b 3acf b13c
00000180: 6271 7cbc f143 39bd f178 29bc 2c53 88ba
00000190: 5900 543a 48c5 f93c 7d9b d83c 8c7a 363d
000001a0: 96a2 453d 7307 9dbb 3684 263d 6d0d 423c
000001b0: bc72 023d cbb9 813c 82b1 523d 8284 a83d
000001c0: 1710 f53d e78b c73d 3d3a 6b3d 5710 523c
000001d0: 3f5b 203d 39f0 663d 8d47 593d 74bb 9d3c
000001e0: 0541 53bc e84a fb3c c798 ab3c 1154 bd3c
000001f0: 4884 153d 9208 823c 27aa 0e3d cdb5 df3a
00000200: f0a1 c23c 3251 013d fd07 fd3c 194b d3bc
00000210: d04a 913c a3bc db3c 4f37 9abc 2ac9 19bc
00000220: 6f26 c23b d575 103d 2f26 21bb a6b3 033b
00000230: 8b49 573c c4ad ca3c 5703 033d 47eb b9bc
00000240: a771 abba b096 03bd f573 523c b87c 36bc
00000250: 11ac f53c f845 4c3c 38a1 363c 631d b13c
00000260: 9e8c 913c b1fe fcbc 9dcd 1b3c 74ca 30bc
00000270: 8d33 05bd 3223 59bc 9136 bebc 6a74 dfbc
00000280: b76d 093d 7935 55bc 14e0 79bb c3d3 4fbc
00000290: 7cd4 acba 8f35 603c d0f6 d53c 02ef 073d
000002a0: af6e a3bc 08b7 c2bc a620 d2bc 951c 0cbd
000002b0: cb6a cb3c 171b 32bb 2414 30bc 3f54 52bb
000002c0: 7d4a 463c 7159 973c 221e 413c f4aa 023d
000002d0: a7f4 363c ccc7 67bc 3f84 a13c c42b 27bc
000002e0: 4c17 02bd e89a 2bbc 52e7 de3c 8009 f73c
000002f0: 3fc9 7dbc f213 693c a131 fdbc 0595 f13c
00000300: 8b2a dfbc 31a0 893c 64b7 033d 46f6 d73c
00000310: 3913 1dbc eef4 333b e0e2 a53b 8a78 b03c
00000320: 184a bdbc ee0e 41bb 31f3 39bc ecf5 17bd
00000330: 4fe8 fcbb 3349 1d3c bada 953c 40d9 993c
00000340: 9fc4 1eba 36a5 13bd 9ad6 e43b a464 4abc
00000350: 51a8 25bb b5e7 96bc 1c57 f33b 2df3 f3bb
00000360: ca1d c63c 2b51 6a3c c260 6cbc 8b72 0c3d
00000370: f5c3 aabc 52c8 003d 766d 56bc ebb0 acbc
00000380: f996 14bc 2668 aa3c 3740 0f3d fd0e 53bc
00000390: 3b4b fa3c 3549 073d 2f7e ed3c 44d2 bcbc
000003a0: 9b92 d238 bde2 4f3b 0da6 983c fb31 2dbc
000003b0: 8c86 c23c bc15 d7bb 1b61 983b b1c1 9d3b
000003c0: 949f b5bc 720f 7a3c 3d2f 37bb 1fe2 973b
000003d0: 9926 a23c 41b7 a1bb 3cc6 d0bc f54d 9c3b
000003e0: 7b04 893b 6d7e ecbc 8c83 933c 497b ae3b
000003f0: e6b5 813c 14a3 c7bc af19 dcbc d398 d43c

bias f4 [3]
-0.017940119 -0.021662408 0.016761914
00000000: 28f7 92bc 5d75 b1bc 4850 893c
