super_res_model_state_dict.pth (torch, 83398 bytes, 6 tensors)

layer1.weight f4 [64, 3, 9, 9]
0	0x3c9a24cc	0.018816374
1	0xbcc5525e	-0.024087127
2	0xbc1fb922	-0.009748729
3	0xbd1420ec	-0.03616421
4	0x3d3099c4	0.043115392
5	0xbd011956	-0.031518303
6	0x3d70ea54	0.058817223
7	0x3c946cb3	0.018118238
8	0x3cfffad8	0.031247541
9	0x3c2b5ed6	0.010459622
10	0x3c2cdab1	0.010550187
11	0xbcd1216b	-0.02552863
12	0x3c449751	0.011998967
13	0xbd16af8f	-0.03678852
14	0xbd44134c	-0.047869965
15	0xbd55adf4	-0.052167848
16	0xbd38bfc7	-0.045104768
17	0x3d4fd187	0.05073693
18	0x3c75276c	0.014963012
19	0xbc26185f	-0.010137646
20	0xbcf12221	-0.02943522
21	0xbd51bedc	-0.05120741
22	0x3d35cd54	0.04438527
23	0xbd79e9d8	-0.061014026
24	0xbbfc56c6	-0.007700774
25	0xbcbd7672	-0.023127768
26	0xbca96b5a	-0.020681072
27	0xbc640e14	-0.013919372
28	0x3c6f42dd	0.014603344
29	0x3bbd81a0	0.005783275
30	0xbd28e336	-0.04123231
31	0x3cd06024	0.025436468
32	0x3ca2843a	0.019838441
33	0x3d4ec8b2	0.050484367
34	0xbc3e9875	-0.011633028
35	0xbd9666ab	-0.07343801
36	0xbd80fdbb	-0.06298395
37	0xbcc65d5c	-0.02421444
38	0x3d80aa64	0.062824994
39	0xbd190698	-0.037359804
40	0x3d5a94ac	0.05336444
41	0xbd24c0ee	-0.040223055
42	0x3c8a9ea4	0.016921349
43	0xbd1028c9	-0.035195146
44	0x3d234092	0.0398565
45	0xbc2e3008	-0.010631569
46	0x3c19ca56	0.00938662
47	0x3b920f7d	0.0044574128
48	0x3da2d17f	0.079501145
49	0x3cec86ad	0.028872812
50	0x3d6ff471	0.058582727
51	0xbd173cf4	-0.036923364
52	0x3c4320ce	0.011909677
53	0x3d5a0580	0.0532279
54	0x3ca94a8b	0.020665428
55	0x3d4e87f9	0.050422642
56	0x3d4fda76	0.05074545
57	0x3d430bcf	0.047618683
58	0x3d80c438	0.06287426
59	0x3d3cd908	0.046105415
60	0x3c7478bb	0.0149213625
61	0xbcf2d682	-0.0296433
62	0x3d4353f3	0.047687482
63	0xbc3f2174	-0.011665691
64	0xbd09ad74	-0.033612683
65	0xbd6d6a37	-0.057962622
66	0xbd08a0a6	-0.03335633
67	0xbd51d803	-0.051231395
68	0xbd02b22b	-0.031908195
69	0x3c9ff77f	0.019527195
70	0xbc8e1222	-0.01734263
71	0x3d4aec4d	0.04954176
72	0xbd577415	-0.05260094
73	0x3d3245a0	0.04352343
74	0xbc88bac1	-0.016690614
75	0xbd2c6d85	-0.042096633
76	0x3b1ac8b2	0.002361816
77	0xbd0537dd	-0.03252398
78	0xbd0a1b07	-0.03371718
79	0x3d531001	0.051528934
80	0xbb1849d2	-0.002323736
81	0xbb3856c8	-0.0028127898
82	0x3d598930	0.053109348
83	0xbc9b7240	-0.018975377
84	0xbcd25421	-0.025674881
85	0xbd058519	-0.032597635
86	0x3c229842	0.009923996
87	0xbcf9d63b	-0.03049766
88	0xbcbb8bb0	-0.022893757
89	0x3d1ab0a3	0.03776611
90	0xbcf72b49	-0.030172007
91	0xbce07f87	-0.02740456
92	0xbd4ca138	-0.049958438
93	0x3d404515	0.04694088
94	0x3d49e2ad	0.04928844
95	0xbd2d4882	-0.042305477
96	0xbc8abe37	-0.016936405
97	0xbd5f253d	-0.054478873
98	0x3d4f78ac	0.05065219
99	0x3d8f1c87	0.06987863
100	0x3cd6a515	0.026201764
101	0x3d2d8bad	0.042369533
102	0x3cdf57d0	0.027263552
103	0xbc740e2d	-0.014895958
104	0x3d04d8a6	0.032433175
105	0x3d559ab9	0.05214951
106	0x3d28ae3f	0.0411818
107	0x3c1a5888	0.009420522
108	0x3c943ca6	0.018095326
109	0xbd31b813	-0.043388437
110	0xbd3f1b62	-0.046656974
111	0xbd2418f2	-0.040062852
112	0x3cd91e05	0.026503572
113	0xbd482a8b	-0.048868697
114	0xbc7ee003	-0.015556338
115	0xbcc4d341	-0.024026515
116	0x3d412003	0.04714967
117	0x3bc49908	0.005999688
118	0x3c071a04	0.008245949
119	0x3d7c0eeb	0.061537664
120	0xbcba4a96	-0.022740643
121	0xbba01e1f	-0.004886403
122	0x3d4a3fa9	0.049377117
123	0xbc977bfa	-0.018491734
124	0x3d6df3b4	0.05809374
125	0xbcf8af92	-0.030357156
126	0xbc86cf06	-0.016456138
127	0xbc28e7c2	-0.010309162
128	0x3d99d354	0.07511011
129	0x3d740d75	0.059583146
130	0xbcc1acc0	-0.023641944
131	0x3da70c30	0.081566215
132	0x3caa07cd	0.020755673
133	0xbd1c9bd7	-0.038234558
134	0x3d50f839	0.051017974
135	0x3d17798a	0.036981143
136	0x3caa7395	0.020807067
137	0xbcfe3aa7	-0.031033827
138	0x3daae26c	0.08343968
139	0x3d209d78	0.039212674
140	0xbcd2f6e3	-0.02575249
141	0x3d7183dd	0.058963645
142	0x3d9006aa	0.07032521
143	0x3d1f42ae	0.03888195
144	0x3d5859cc	0.052820012
145	0xbd1c968a	-0.038229503
146	0x3ba272ad	0.004957518
147	0x3d6331c8	0.055467397
148	0x3c994b50	0.01871267
149	0x3d8617b4	0.0654749
150	0x3d761876	0.06008192
151	0x3d9506b9	0.07276673
152	0xbd352774	-0.04422708
153	0x3d22e577	0.039769616
154	0xb9873270	-0.00025786785
155	0x3cf51ffb	0.029922476
156	0xbd118ced	-0.035534788
157	0xbcdd7180	-0.02703166
158	0x3c1cd437	0.00957208
159	0xbcac3c49	-0.02102484
160	0x3cb84dd4	0.022498049
161	0xbbcf8cc4	-0.0063339192
162	0xbc7432b7	-0.0149046695
163	0x3cc629f0	0.02418992
164	0xbc67e095	-0.014152666
165	0x394efe6b	0.00019740469
166	0x3b8bd8f8	0.004267808
167	0xbcf720ab	-0.030166944
168	0x3d959184	0.073031455
169	0xbbc23314	-0.005926499
170	0x3c5ac5ae	0.013352795
171	0x3b1b40be	0.0023689712
172	0x3d7ded1a	0.061993696
173	0xbd207945	-0.03917815
174	0xbd3283d8	-0.043582767
175	0xbd50a51a	-0.050938703
176	0xbc5b7800	-0.013395309
177	0x3d17600e	0.03695684
178	0x3d0dd803	0.034629833
179	0xbd0cf938	-0.03441736
180	0x3c26a2d8	0.010170661
181	0xbc76c355	-0.015061219
182	0x3c40eaeb	0.011774759
183	0x3c8591a3	0.016304797
184	0xbd314a55	-0.04328378
185	0xbca5096b	-0.020146092
186	0xbba55fb5	-0.0050468096
187	0x3c7ccade	0.015429227
188	0xbd35b100	-0.044358253
189	0xbbf58850	-0.0074930564
190	0xbc3600c3	-0.01110858
191	0xbc112368	-0.008858539
192	0x3bbc49b5	0.0057460913
193	0x3d015ea4	0.031584397
194	0xbcf5c97e	-0.030003306
195	0xbd05ed33	-0.032696914
196	0x3d6c48c4	0.057686582
197	0xb9824389	-0.0002484585
198	0xbd89f515	-0.06736199
199	0xbd2e7903	-0.042595875
200	0x3adf35b2	0.0017029552
201	0x3bda8590	0.006668754
202	0xbdaf65c4	-0.08564332
203	0x3c8b1321	0.016976895
204	0xbc499d21	-0.012305529
205	0xbce04853	-0.027378237
206	0x3d1c380c	0.038139388
207	0xbd461d07	-0.048367526
208	0x3b8ba7db	0.0042619533
209	0x3d2bb85f	0.041923877
210	0x3d24e0a2	0.04025329
211	0x3b34c70b	0.002758446
212	0x3c95f751	0.018306406
213	0x3d61a453	0.055088352
214	0xbd15150b	-0.03639702
215	0xbd31e1c4	-0.043428198
216	0x3c5f9d2c	0.013648313
217	0x3d4af2fb	0.04954813
218	0x3c946b98	0.018117711
219	0x3d09ae58	0.033613533
220	0xbb6f2e66	-0.0036496161
221	0x3cf7f457	0.030267878
222	0x3bed070a	0.007233505
223	0x3c8e7617	0.017390294
224	0x3d4f4afd	0.050608624
225	0xbaa504e2	-0.0012589956
226	0xbc9a25be	-0.018816825
227	0xbca92c65	-0.020651052
228	0x3cb5a218	0.022172019
229	0xbd5dbb68	-0.054133803
230	0x3c37aa41	0.011210025
231	0xbbfa6be1	-0.0076422547
232	0xbc19d4ef	-0.009389146
233	0x3c882a21	0.016621651
234	0xbd68ffff	-0.056884762
235	0x3ce659b5	0.028118948
236	0x3d8d1743	0.068892024
237	0xbd587b5b	-0.052852016
238	0x3d4f63d4	0.050632313
239	0xbd242ac9	-0.040079866
240	0xbd475b71	-0.04867119
241	0x3d8b8956	0.06813304
242	0xbd174ead	-0.036940265
243	0xbc6f5313	-0.014607209
244	0x3d2400e3	0.04003991
245	0xbd789a95	-0.060694296
246	0xbc08f134	-0.008358289
247	0x3d18d85d	0.037315715
248	0x3c6cc73d	0.014451799
249	0xbd31e6d3	-0.04343302
250	0xbbdf2b47	-0.006810579
251	0xbb537b1f	-0.003226943
252	0x3c2f2147	0.010689086
253	0x3d42cdfb	0.04755972
254	0x3c5c3030	0.013439223
255	0x3d0a71d1	0.03379995

layer1.bias f4 [64]
0	0xbd43a7e0	-0.04776752
1	0xbb88bc36	-0.004172827
2	0x3d82be2c	0.06383929
3	0x3d834ac4	0.06410745
4	0x3b10834c	0.0022050915
5	0x3c96e296	0.018418591
6	0x3c0b835d	0.008515206
7	0x3d565350	0.052325547
8	0xbcc1d01e	-0.023658808
9	0x39835dfc	0.0002505629
10	0x3bdb657d	0.006695448
11	0x3c424f9a	0.011859799
12	0x3d529952	0.05141575
13	0x3ca46723	0.02006871
14	0x3c66cbce	0.014086677
15	0x3d97929a	0.07401009
16	0x3ca94214	0.020661391
17	0xba3c260a	-0.0007177299
18	0x3d1a7a7b	0.037714463
19	0x3d5647f7	0.052314725
20	0xbda864ce	-0.08222352
21	0xbcee2f3f	-0.029075263
22	0xbca70b76	-0.020391207
23	0x3d6ad09d	0.057327855
24	0x3cd80145	0.026367793
25	0x3d174502	0.036931045
26	0x3d2a37d7	0.04155716
27	0x3c11e5b3	0.008904862
28	0x3cea6268	0.028611377
29	0x3da18bc3	0.078879856
30	0xbd35689b	-0.044289213
31	0xbd11d11c	-0.035599813
32	0xbb857cf2	-0.0040737325
33	0x3ca94205	0.020661363
34	0x3d52322b	0.051317375
35	0x3d5f8997	0.054574575
36	0x3da59b09	0.08086211
37	0x3d3dd506	0.046345733
38	0x3d6f8751	0.058478657
39	0x3d76f2fc	0.06029032
40	0xbd0705bf	-0.032964464
41	0x3cd4e988	0.025990263
42	0x3bdb02df	0.006683692
43	0x3cccccba	0.024999965
44	0xbc93ecb4	-0.018057205
45	0xbcb14451	-0.021639021
46	0x3b37e658	0.002806088
47	0xbc9aec71	-0.018911572
48	0x3d376d68	0.044782072
49	0xbc185dce	-0.0092997085
50	0x3ace981e	0.0015761887
51	0x3ca1f45f	0.019769846
52	0xbc016bd7	-0.007899246
53	0x3cdd1e73	0.026992058
54	0xbc9e02a2	-0.019288365
55	0x3cef0741	0.029178264
56	0x3b7a9d85	0.0038240862
57	0x3c5c1f73	0.013435232
58	0x3c0bd23d	0.008534011
59	0x3d01f68c	0.031729266
60	0x3c5c9594	0.013463397
61	0x3c9486b1	0.018130632
62	0xbcbd4beb	-0.02310749
63	0x3dc320ed	0.095277645

layer2.weight f4 [32, 64, 1, 1]
0	0xbd5ab1f1	-0.053392354
1	0xbd9e2aec	-0.077230304
2	0x3d325ca3	0.043545377
3	0xbdc19372	-0.09451951
4	0x3d2be0f4	0.04196258
5	0x3e0a8163	0.1352592
6	0xbe0fb869	-0.1403519
7	0x3c914ca2	0.017736737
8	0xbd1ecaee	-0.038767748
9	0x3c3406fb	0.010987992
10	0x3dc1fb1d	0.09471724
11	0xbe15cbc5	-0.14628513
12	0x3ca00c35	0.01953707
13	0xbe327665	-0.17427976
14	0x3c2235a1	0.009900481
15	0x3d79e586	0.061009906
16	0x3d12f784	0.03588058
17	0x3ba98a58	0.0051739626
18	0x3e10528c	0.14093989
19	0x3de2684d	0.1105505
20	0x3d1cfec2	0.038328893
21	0xbdc35db0	-0.09539354
22	0x3daf6c4c	0.08565578
23	0xbdd1bd95	-0.10241238
24	0xbd838730	-0.06422269
25	0x3dcc2e3f	0.09969758
26	0x3d45ce3b	0.04829238
27	0xbca3bf63	-0.019988721
28	0x3d079730	0.033103168
29	0x3e01fab9	0.126933
30	0xbca989b6	-0.020695549
31	0xbd883b73	-0.06651964
32	0x3d00c4e5	0.031437773
33	0x3d1dd8cc	0.03853683
34	0x3e08300d	0.1329958
35	0xbd70c99d	-0.058786023
36	0xbdd74019	-0.105102725
37	0xbcb7c730	-0.022433847
38	0x3a5c228c	0.0008397482
39	0x3de775e8	0.11301786
40	0xbc08d2ae	-0.008351011
41	0x3e08ec1b	0.13371317
42	0xbca6317d	-0.02028727
43	0x3dc87e06	0.09789662
44	0xbddf3ac7	-0.10899883
45	0xbd9b1397	-0.07572096
46	0x3dd2505f	0.10269236
47	0x3d64b96f	0.055840906
48	0xbdb48ffe	-0.08816527
49	0xbc9bbbf5	-0.019010523
50	0xbcef726e	-0.029229369
51	0x3cbf66c6	0.023364436
52	0xbc062875	-0.008188357
53	0x3da79a28	0.081837
54	0xbcbc8986	-0.023014795
55	0x3df69223	0.12039592
56	0xbd174f63	-0.036940943
57	0xbddf13a6	-0.108924195
58	0xbd5862b4	-0.052828506
59	0x3db553a1	0.088538416
60	0xbd6a7ea1	-0.05724967
61	0xbe1cf092	-0.15326145
62	0xbc765b56	-0.015036425
63	0x3e20aeb1	0.1569164
64	0xbde2f93e	-0.110826954
65	0x3deb28d9	0.114824004
66	0xbd8a1533	-0.06742325
67	0xbdfae82b	-0.12251314
68	0x3e03fb63	0.12888865
69	0xbdcd1ead	-0.100156166
70	0x3cd47979	0.025936829
71	0xbcce2199	-0.025162505
72	0x3da27b97	0.07933729
73	0xbd02d7ed	-0.031944204
74	0x3cbd86b3	0.023135519
75	0x3d933786	0.07188325
76	0x3d99fa99	0.07518501
77	0x3d61dc48	0.055141717
78	0xbe0bb022	-0.13641408
79	0x3cc71d3b	0.02430593
80	0x3d7d9b6f	0.06191581
81	0xbd60990b	-0.054833453
82	0x3d5fde66	0.054655455
83	0x3d94e111	0.072694905
84	0x3d4be3c7	0.049777772
85	0x3c3328ef	0.010935052
86	0x3db4748e	0.088112935
87	0xbded3b4e	-0.11583577
88	0x3d1e43d1	0.038638894
89	0x3d430e86	0.047621273
90	0x3e0b7961	0.13620521
91	0xbd2a04a0	-0.041508317
92	0xbda3a1cb	-0.07989844
93	0xbd969d84	-0.073542625
94	0x3e0e4dc5	0.13896854
95	0x3d05de22	0.032682545
96	0xbcb644ca	-0.022249598
97	0xbd84b9be	-0.0648074
98	0xbcc352c9	-0.023843186
99	0x3d3d5c30	0.046230495
100	0x3db9fe4c	0.090817064
101	0x3c89456b	0.016756734
102	0xbdff229d	-0.12457774
103	0x3d194acc	0.037424847
104	0xbc37f122	-0.011226924
105	0xbcb07ede	-0.02154487
106	0x3e00af45	0.1256686
107	0x3de964ab	0.11396154
108	0x3e0fb8e8	0.1403538
109	0x3e302607	0.17202006
110	0xbda58ed8	-0.08083886
111	0x3d141e96	0.03616198
112	0xbc5c9375	-0.013462891
113	0x3e2c1d41	0.16808034
114	0x3cb09217	0.021554036
115	0x3de03296	0.109471485
116	0x3e1c9c92	0.15294102
117	0x3d27f7cd	0.041007806
118	0x3d34a370	0.04410118
119	0x3da2fd2f	0.07958447
120	0x3e1deb59	0.1542181
121	0x3dbd81d8	0.09253281
122	0x3d6cd789	0.057822738
123	0x3c9f8e3e	0.019477006
124	0xbdc0fdec	-0.09423432
125	0x3dd12449	0.10211999
126	0xbdafe65c	-0.085888594
127	0x3dd63799	0.10459823
128	0x3d863afc	0.06554219
129	0x3df3e720	0.11909318
130	0xbd91bcf8	-0.07116121
131	0xbdc4648b	-0.095894895
132	0x3dbdbeec	0.09264931
133	0xbc15666a	-0.009118656
134	0x3e39f60e	0.18160269
135	0x3de4508a	0.11148174
136	0x3da15145	0.07876829
137	0x3d3f20f9	0.046662305
138	0xbd93e24d	-0.07220898
139	0x3dae81e5	0.08520869
140	0xbd73ab21	-0.059489373
141	0x3d71fee4	0.059080973
142	0x3c9163f5	0.017747859
143	0x3c60b8d3	0.0137159405
144	0x3debb8f1	0.11509884
145	0xbd1e2697	-0.03861102
146	0xbcac2114	-0.021011867
147	0xbd2a8517	-0.04163083
148	0x3cf3fc4c	0.02978339
149	0x3dbde960	0.092730284
150	0xbe036c3e	-0.1283426
151	0x3ddf0d0a	0.10891159
152	0xbdaf0f4a	-0.08547838
153	0xbcb8b038	-0.022544965
154	0xbdb6d584	-0.089274436
155	0x3e212ba6	0.15739307
156	0xbd0d861b	-0.03455172
157	0xbe0d1206	-0.13776407
158	0xbdb75b71	-0.08952988
159	0xbd15dd04	-0.03658773
160	0xbb81e098	-0.0039635412
161	0x3d9c5f0e	0.07635318
162	0x3d9893fa	0.07450099
163	0x3e0004ce	0.12501833
164	0xbde203ec	-0.11035904
165	0x3e157dba	0.14598742
166	0x3cb8b9c4	0.022549517
167	0x3cc71e12	0.02430633
168	0x3d3f2ce6	0.046673678
169	0xbd322374	-0.043490842
170	0x3e40ece9	0.18840374
171	0x3dd2f81e	0.10301231
172	0xbd3becdc	-0.045880184
173	0x3e7542f4	0.23951322
174	0x3e1058b7	0.14096342
175	0x3d5f889f	0.05457365
176	0xbd809d5d	-0.06280015
177	0xbd67442b	-0.056461494
178	0x3d959cae	0.07305275
179	0xbd45942e	-0.04823702
180	0x3d9a3596	0.07529752
181	0x3d4891e3	0.048967253
182	0xbdb518e5	-0.08842639
183	0x3d9a4cbf	0.075341694
184	0xbd89cf4e	-0.06728993
185	0x3e20a722	0.15688756
186	0xbde9f3a4	-0.11423424
187	0xbdacaca8	-0.08431369
188	0xbccbe67c	-0.024890177
189	0x3ebe0443	0.37112626
190	0xbd15cd52	-0.03657276
191	0xbd9de878	-0.077103555
192	0x3e106eda	0.14104787
193	0xbd82c6fb	-0.06385609
194	0x3d6ef2eb	0.058337133
195	0x3df68bdb	0.12038394
196	0x3cf4b6d4	0.029872335
197	0x3d17cfec	0.037063524
198	0x3dbbe2f1	0.09174145
199	0xbd926428	-0.071480095
200	0x3d226ecd	0.03965645
201	0x3ddd1282	0.10794546
202	0x3da3840d	0.07984171
203	0x3d105b0c	0.03524308
204	0xbde0e4bc	-0.109811276
205	0xbdcc9bf1	-0.09990681
206	0xbbb5a354	-0.005543152
207	0x3dd3a6e5	0.10334567
208	0x3df91efd	0.12164114
209	0x3df41f00	0.11919975
210	0x3d4e9e58	0.050443977
211	0x3e0a6d7f	0.13518332
212	0x3d4c6471	0.049900476
213	0xbd10d05a	-0.03535495
214	0xbd9069f9	-0.07051463
215	0xbe068c83	-0.13139538
216	0xbab3d072	-0.0013718738
217	0x3d1df67e	0.03856515
218	0x3decacd7	0.11556404
219	0xbdef3c14	-0.11681381
220	0x3cde6df3	0.027152037
221	0x3e00f397	0.12592922
222	0xbdb00ffc	-0.08596799
223	0xbd6f8cd1	-0.058483902
224	0xbdd31f52	-0.10308708
225	0x3ca6ee00	0.02037716
226	0x3c640ad5	0.013918598
227	0xbd537695	-0.05162676
228	0x3ca3a609	0.019976633
229	0x3ce63e43	0.02810586
230	0xbd28d02a	-0.041214146
231	0xbd87eabf	-0.06636571
232	0xbd88be5c	-0.06676933
233	0x3e1da7d5	0.15396054
234	0xbe0518c5	-0.1299773
235	0xbd3130f2	-0.04325957
236	0x3e05c2ed	0.1306264
237	0xbd41c983	-0.047311317
238	0x3aaa60f4	0.0012998865
239	0x3cab2b79	0.020894753
240	0xbc15b8d9	-0.009138309
241	0xbd585eb2	-0.052824683
242	0xbe03c187	-0.12866794
243	0x3ce6c311	0.028169187
244	0xbd0cce7c	-0.034376606
245	0x3df20bed	0.11818681
246	0x3d172cc8	0.03690794
247	0xbd845090	-0.064606786
248	0x3dda9e85	0.106747665
249	0xbdb279ec	-0.08714661
250	0x3da973e2	0.08274056
251	0x3ddd193b	0.10795828
252	0x3ced6207	0.028977407
253	0xbdc263e7	-0.09491711
254	0x3d9d886b	0.07692035
255	0x3b4fc5bb	0.003170355

layer2.bias f4 [32]
0	0xbd4ac145	-0.049500722
1	0xbc823166	-0.015892696
2	0x3d927bd2	0.07152523
3	0xbcdc2220	-0.02687174
4	0x3d18dbe0	0.037319064
5	0x3d6c4b4e	0.057689004
6	0x3d03df50	0.03219539
7	0xbc2fe5e2	-0.010735961
8	0xbd2139ec	-0.03936188
9	0x3dcde6bb	0.10053774
10	0xbca8929f	-0.020577727
11	0x3c3d26df	0.011544912
12	0xbd7a2c7a	-0.061077572
13	0xbc6f7114	-0.014614362
14	0x3deed5ca	0.11661871
15	0x3e021457	0.12703072
16	0x3d03c6f8	0.032172173
17	0xbdbd8284	-0.092534095
18	0x3dbf8960	0.09352374
19	0x3da3a87e	0.07991122
20	0xbd41c2aa	-0.047304787
21	0x3c92a639	0.017901527
22	0xbd1d97f6	-0.038475
23	0xbdde81d6	-0.10864608
24	0x3d23085d	0.039802898
25	0x3e0c1652	0.1368039
26	0x3d4580f3	0.04821868
27	0xba05a560	-0.000509819
28	0x3d8a22f2	0.067449465
29	0x3c93539d	0.017984206
30	0xbca1435c	-0.01968544
31	0x3cf330e5	0.0296864

layer3.weight f4 [3, 32, 5, 5]
0	0x3d1338c8	0.035942823
1	0x3c6eebe3	0.014582607
2	0x3cb3a328	0.021928385
3	0x3d0eb490	0.034840167
4	0x3ca16524	0.019701548
5	0xbd1de590	-0.038549006
6	0xbb95a445	-0.0045667016
7	0x3d00cfa9	0.03144804
8	0xbc69b718	-0.014264844
9	0xb9e0d49f	-0.00042883024
10	0x39e3d4b1	0.0004345528
11	0xbd0b1f43	-0.03396536
12	0xbc040798	-0.008058451
13	0xba93d9a2	-0.001128007
14	0xbcd7528b	-0.026284477
15	0xbc9390ac	-0.01801332
16	0xbca379d1	-0.019955548
17	0x3d4dcfa3	0.050246846
18	0x3c28a9dc	0.010294404
19	0xbcec40b7	-0.028839452
20	0x3d3eb466	0.04655876
21	0x3d0fd2b9	0.03511307
22	0x3c4e97f1	0.012609468
23	0xbb95f3e8	-0.004576195
24	0xbcbcf89c	-0.023067765
25	0x3c897661	0.01678008
26	0x3d4df5c3	0.050283205
27	0x3d7311b4	0.059343055
28	0x3d048dad	0.032361675
29	0xbd1df336	-0.038562022
30	0x3d0f12e5	0.03493013
31	0x3d387de1	0.045041922
32	0x3b62abb9	0.0034587218
33	0x3d6b985b	0.057518344
34	0x3b5cc000	0.0033683777
35	0x3ca0f036	0.019645792
36	0x3d014752	0.031562157
37	0x3ca4cded	0.020117724
38	0x3d3d0946	0.046151422
39	0x3c86d2eb	0.016457995
40	0x3d0c8567	0.03430691
41	0xbb823a12	-0.0039742077
42	0xb95c2a2e	-0.00020996548
43	0x3d077a81	0.033075813
44	0x3acae154	0.001547853
45	0x3d582bf3	0.05277629
46	0x3d81fb15	0.06346718
47	0xbd0802fd	-0.033205975
48	0xbd29acfa	-0.04142473
49	0xbc5e061d	-0.013551262
50	0xbd683762	-0.056693442
51	0x3cd6a965	0.02620382
52	0xbd1ca336	-0.038241588
53	0xbd039e41	-0.032133345
54	0x3cdae5a3	0.026720827
55	0x3c7dc197	0.01548805
56	0x3c4b599b	0.0124115
57	0x3c276003	0.010215762
58	0x3cf50e3e	0.029914018
59	0xbd7fcc67	-0.062450793
60	0x3c28426b	0.0102697415
61	0x3d6d8973	0.05799241
62	0x3b24aa37	0.002512587
63	0x3dac1afc	0.08403584
64	0x3ce7fdae	0.028319206
65	0xbc4bb754	-0.012433846
66	0xba872c50	-0.0010312889
67	0xbe0486c0	-0.12942028
68	0xbda33ef9	-0.079709955
69	0xbd02764a	-0.03185109
70	0x3b71471e	0.003681607
71	0x3d3ebc49	0.04656628
72	0xbd7a72f5	-0.061144788
73	0xbc4c1211	-0.012455479
74	0xbc241743	-0.010015312
75	0xbd080cc0	-0.033215284
76	0xbd13c9ff	-0.03608131
77	0x3c921431	0.017831894
78	0x3995aae7	0.00028546827
79	0xbce5e812	-0.028064761
80	0xbcf11cd8	-0.0294327
81	0xbc716224	-0.014732871
82	0x3cb7d723	0.022441452
83	0x3d01f8b4	0.031731322
84	0x3d2ebbd5	0.0426596
85	0xbc481e05	-0.012214188
86	0xbc8bd06b	-0.017067155
87	0x3cc3b508	0.023890033
88	0x3b719f6f	0.0036868711
89	0x3d39d56c	0.04536955
90	0xbd1d6da5	-0.038434643
91	0xbb0bdc47	-0.0021341012
92	0x3c848f69	0.016181665
93	0x3caf915b	0.021431616
94	0xbcc17604	-0.023615845
95	0xbcbe8f57	-0.02326171
96	0x3cd6b46e	0.026209082
97	0x39b66f9a	0.00034796895
98	0xbcad669a	-0.021167088
99	0x3bb8c749	0.005638991
100	0xbd883204	-0.06650165
101	0xbd75c589	-0.060002837
102	0xbcf146d7	-0.029452724
103	0xbde3b6ce	-0.111188516
104	0xbe01accb	-0.12663572
105	0x3dfe6c4b	0.12422999
106	0x3c94ddc2	0.018172149
107	0xbc19e20c	-0.009392273
108	0x3e61b82f	0.22042917
109	0xbd5e7cf0	-0.05431837
110	0x3c1e622c	0.009666961
111	0xbdbda519	-0.092600055
112	0xbe169890	-0.14706635
113	0x3e1dab65	0.15397413
114	0xbe06fce1	-0.13182403
115	0xbc5c4fa0	-0.013446718
116	0x3d828da0	0.06374669
117	0x3d9479ed	0.07249818
118	0xbc404e2e	-0.0117373895
119	0xbdd05655	-0.101727165
120	0xbd376049	-0.04476956
121	0xbb7b45d6	-0.0038341186
122	0x3c2c6f07	0.010524518
123	0xbcf3a54f	-0.029741911
124	0x3db8e8ab	0.09028753
125	0xbd543aa4	-0.051813737
126	0xbda955dd	-0.0826833
127	0xbbb4db77	-0.0055193263
128	0xbc62adc9	-0.013835379
129	0x3c872d66	0.01650114
130	0xbd9a1910	-0.075243115
131	0xbaece3d1	-0.0018073266
132	0x3c94f53f	0.018183349
133	0xbd1250dd	-0.03572165
134	0xba7a0f4b	-0.0009539022
135	0xbcca7808	-0.024715438
136	0x3c452346	0.012032336
137	0x3d0e8e15	0.03480347
138	0xbcc11ed2	-0.023574267
139	0x3c84cd61	0.016211214
140	0x3c8bb7e2	0.017055456
141	0x3ce08d32	0.027411077
142	0x3d224bbf	0.03962302
143	0x3d20eb74	0.039287046
144	0x3d5a8881	0.053352837
145	0x3d175459	0.036945675
146	0xbd217d91	-0.03942639
147	0xbda9d693	-0.0829288
148	0x3cefd170	0.029274672
149	0x3d0a3c4b	0.033748906
150	0x3d252583	0.040318977
151	0xbc28d2a6	-0.010304129
152	0x3c0051e9	0.007832029
153	0xbcf2a014	-0.029617347
154	0xbcc9d912	-0.02463964
155	0xbc1ba9a7	-0.0095008975
156	0xbd3419da	-0.043969966
157	0xba8c50d2	-0.0010705239
158	0x3d22c09e	0.039734475
159	0x3cc5941b	0.024118474
160	0xbccc734f	-0.024957327
161	0xbd8048b3	-0.06263866
162	0xbc0641b2	-0.008194374
163	0x3d86f2e5	0.06589297
164	0x3b0690ed	0.002053316
165	0xbcb9d1ca	-0.022683043
166	0x3cf757ba	0.030193198
167	0xbaa7d241	-0.0012803749
168	0xbae34fde	-0.0017342528
169	0xbcfa955a	-0.030588794
170	0x3cb24241	0.021760108
171	0x3cc77159	0.02434604
172	0x3d4fd2b2	0.050738044
173	0xbc4ba7ee	-0.012430174
174	0xbcd49dc3	-0.025954133
175	0x3d276e9e	0.040876977
176	0x3d070d2e	0.032971554
177	0xbc9a1a47	-0.018811358
178	0x3d095df2	0.03353686
179	0xbcd60634	-0.026126005
180	0xbc5af186	-0.013363248
181	0xbce9e2eb	-0.028550586
182	0x3cf89810	0.030345947
183	0xbc71f178	-0.014767043
184	0xbd083b79	-0.033259843
185	0xbd2051be	-0.039140455
186	0xbcd3ec7b	-0.025869599
187	0x3b218756	0.0024647317
188	0x3d3b2b73	0.045695733
189	0x3b834d56	0.004007022
190	0x3c9bb33e	0.019006368
191	0x3c74c36d	0.014939171
192	0xbada6f9f	-0.0016665346
193	0xbc4e4ed0	-0.012592033
194	0x3cac86ee	0.021060433
195	0x3d08083e	0.033210985
196	0x3d05cd1d	0.032666314
197	0xbce34b2a	-0.027745802
198	0x3aa20dee	0.001236377
199	0xbbb88dd9	-0.005632144
200	0xbd60d54d	-0.05489092
201	0x3c925cea	0.01786657
202	0xbcc04a2d	-0.02347287
203	0x3bf62ed4	0.0075129066
204	0x3d3ca491	0.04605538
205	0x3c260549	0.010133096
206	0x3d98725a	0.07443686
207	0x3cf06974	0.029347159
208	0x3a94b2f9	0.0011344842
209	0x3d4b264d	0.049597073
210	0x3cdb85db	0.026797226
211	0x3c02bf7d	0.007980225
212	0x3cb9c6ea	0.022677857
213	0xbd73fbf7	-0.059566464
214	0xbce02fd3	-0.027366554
215	0xbd439060	-0.04774511
216	0x3cad6888	0.021168008
217	0xbce58d5d	-0.028021509
218	0xbd412c10	-0.047161162
219	0x3ca3728e	0.019952085
220	0x3c234b32	0.009966658
221	0x3c00a31b	0.007851387
222	0x3d0bd60b	0.034139674
223	0x3b2266db	0.0024780545
224	0x3b9df67d	0.0048206435
225	0x3c815f6f	0.015792577
226	0xbbf4cbbc	-0.007470576
227	0x3ba58634	0.0050513986
228	0x3c36f332	0.011166381
229	0x3c8079e4	0.015683122
230	0x3ccd76d3	0.025081074
231	0x3cf2b571	0.029627534
232	0xbc6e109d	-0.014530328
233	0x3c498f59	0.012302243
234	0x3c9df15e	0.019280132
235	0xbc17a621	-0.009255917
236	0x3c92332e	0.01784667
237	0xbcb7fea9	-0.022460299
238	0x3c945ff1	0.018112155
239	0x3cd6eba7	0.026235415
240	0x3d036272	0.032076307
241	0x3cbf403b	0.023346057
242	0xbd103478	-0.035206288
243	0x3c8de345	0.017320285
244	0x3d1da194	0.03848417
245	0x3d0b352c	0.033986256
246	0x3cd61af6	0.026135903
247	0xbc45c7b7	-0.0120715415
248	0x3c92ca0e	0.017918613
249	0x3c97754d	0.01848855
250	0x3d893a04	0.06700519
251	0x3c3c2ceb	0.011485319
252	0x3d2b183b	0.041771155
253	0x3d6bf540	0.057606936
254	0x3d52f6a5	0.05150475
255	0x3d23a63c	0.039953455

layer3.bias f4 [3]
0	0x3cca6bba	0.024709571
1	0x3b98221a	0.004642737
2	0x3c93924c	0.018014096
