super_res_model_state_dict1.pth (torch, 83408 bytes, 6 tensors)

layer1.weight f4 [64, 3, 9, 9]
00000000: dae2 c1bb 0ce7 e1b6 22cd 053d ee35 523d
00000010: 9db8 313d 7056 643d 17ae 5fbd fbf7 833d
00000020: 83f9 303c cafd 3ebd 4bcc 843d d562 f1bb
00000030: 2b6b 333c 6614 043d 268e eb3c 3037 1bbc
00000040: 4571 8ebb 22ca 98bc 67aa f3bc d40b 023d
00000050: aaeb 093d 90d0 65bd 4cb2 703b c65f f63c
00000060: ebe4 f03c 50ce 62bb 5b71 b53c 8e74 d8bc
00000070: e73a 47bd a3f9 2e3d 7fcd eebc 7721 48bc
00000080: 930d 0abd 0bdd 443d d6ac f8ba ced1 fdbc
00000090: f4e3 683d bff5 64bd 062f abbc f846 2cbd
000000a0: 972d 8a3c edeb 0c3d 2ff5 303d 1537 23bd
000000b0: fc62 033d a8b6 3bbc a6be ac3c ff38 39bd
000000c0: 1c01 2cbd 9b0b 2abd 9634 27bc ef91 7d3d
000000d0: 7261 893c 45b8 20bc 2f58 663b 2644 62bd
000000e0: 21bb 1fbd efe5 3e3d 27d2 5e3d 288b ad3c
000000f0: d483 b73c 38af 423d fecd bdbc 8142 d4bc
00000100: 1739 c73c e622 8b3c 5592 9dbc 7fdf 4d3d
00000110: 4868 4bbd 7e04 8bbc 337c d13c b5ff 5e3d
00000120: c7ac 5cbb 14df b33c 3cc2 5fbd ef1f 59bb
00000130: 12f3 da3c c69d 94bc 8512 f1bc 6bdc 21bd
00000140: 49cd d13c 18e5 d4bb 6334 8a3b a1df 9d3c
00000150: 07e1 87ba 8dc0 4c3d 6fad 853d 7ec1 493c
00000160: 7efc 303d a213 02bc f459 0cbb 23db ca3a
00000170: dcae 133d df1b 1fbd 2c23 003d 53e0 8fbb
00000180: 8b26 793d 3a7f 3d3d 84cb 833d f977 2bbd
00000190: 6337 673d b94b 27bd 679f a2bc 54ba 073d
000001a0: 0d7c ae3b 45cc 133c ffd7 0bbc a778 493d
000001b0: 2853 f73b a80a 553d e1f6 7f3d 6bba ad3c
000001c0: 33b8 9bbc 0718 1f3d 0ad5 7abb ef34 00bd
000001d0: 9dbc db3c 63d7 be3c b548 6a3c a30e 613d
000001e0: 79ce 623d be2a 07bc bbf6 9c3d 8887 9f3d
000001f0: c0f3 41bd 6b00 21bd fef7 873c 29d5 843d
00000200: 031c 7f3c 56c2 953c 3b65 2f3d 3bbc d7bc
00000210: 77e4 503d ee31 233d 6bae 5bbd ab5e 2d3d
00000220: c6f7 503b 78aa 22bd 06d1 cebb 54fe 1e3d
00000230: 17bb 9bba 451c 063d 007a 653d 70be 25bd
00000240: ed6f 05bd 9335 343a 4980 db3c a55a ab3c
00000250: f20d 2cbd d6da 8e39 2891 6a3d 0702 173c
00000260: ee1a ae3b d56d 52bd d11a 17bd bb9a da3c
00000270: 3446 22bd cc0a 3c3d b4d4 453d 8282 0b3d
00000280: 9e58 1cbc fd17 853d 04aa eabc bc15 e9bb
00000290: b6cc 873d 7cfd f5bb 682a 1d3d dea7 1a3c
000002a0: 1766 7b3d 9527 193c cf70 133b d412 d23b
000002b0: 245f dd3c 309f 6b3c 54fb 603d 48d8 4f3d
000002c0: 50cc 5c3d aebb 1bbd 60a3 dfb8 cb42 42bc
000002d0: 3bf0 3b3d 5b25 913a 6c57 6d3c 41be a83c
000002e0: d540 973c 1831 cebc 4c7d 4abd ff75 6bbc
000002f0: f17e 183d d590 a93c 6114 7a3c 001b 12bc
00000300: dc9e 963c 8585 253d ce83 ca3c 8b53 9a3d
00000310: c473 dabc 46b5 00bd 1382 883d b56b c83b
00000320: 5fae 86b9 ff2d a63c 6028 0cbd f021 4e3c
00000330: ad38 8a3d 4330 2b3c f38d 27bd 6a7e edbc
00000340: 7ac6 813c d7ad dc3c 2674 53bd a6b7 2dbd
00000350: fe43 af3b 3f40 363d 5527 063d c29b 843d
00000360: 9cf2 8cbc 15af 1cbd 65da 513d 4832 b0bc
00000370: 290e 003d 8bdc 823d d6a5 95bc eb3d 70bc
00000380: ca16 0abd 5211 403d 6c4c 2f3d 4e4c ef3c
00000390: d900 e13c 9e5c cbbc 88b2 6a3c 766f d73b
000003a0: 73fb 413d 1165 7e3d 5913 023d 04c6 0c3d
000003b0: a480 593d 641e 5e3d d048 803d 3534 93bc
000003c0: 10b3 203d eaa1 423d c7b5 1ebd 5911 813d
000003d0: 8b3a 863c 664f c93a 8c48 5f3d 6cee 82bd
000003e0: bbfe 61bd 165d c73c 85ea 0dbb 4810 49bd
000003f0: 9e0c 0abd 310d f139 d685 263d c2b3 77bc
-0.0059169354 -6.73242e-06 0.032666333 0.051320963 0.04338895 0.055746496 -0.054609384 0.06443783
0.010801676 -0.04662875 0.06484278 -0.007366518 0.010950844 0.032246016 0.028754305 -0.009473607
-0.004346999 -0.018651072 -0.02974434 0.03174956 0.033672012 -0.056107104 0.0036727367 0.030074965
0.029406032 -0.0034607835 0.022148779 -0.026422765 -0.048640158 0.04271854 -0.029150723 -0.01221501
-0.03370435 0.048062366 -0.0018972408 -0.030983832 0.056858018 -0.055898424 -0.020896446 -0.04205987
0.016867442 0.034404684 0.043202575 -0.039847452 0.03207682 -0.011457123 0.021087002 -0.04522037
-0.041993245 -0.041514974 -0.010205409 0.06190675 0.016770098 -0.009809558 0.0035147776 -0.055240773
-0.03899682 0.046606 0.054399636 0.021184519 0.022401728 0.047530383 -0.023169514 -0.025910618
0.024319215 0.016984414 -0.019234816 0.05026197 -0.049659997 -0.016969915 0.025571918 0.05444308
-0.003367232 0.021956958 -0.054628596 -0.0033130606 0.026727233 -0.018141638 -0.029427776 -0.039516848
0.025610583 -0.0064970367 0.0042176708 0.019271674 -0.0010366746 0.04998832 0.065272205 0.012314199
0.043209545 -0.007939251 -0.002141592 0.0015476685 0.03605543 -0.03884494 0.031283543 -0.004390755
0.060827773 0.04626391 0.06435302 -0.04186246 0.056449305 -0.0408437 -0.0198514 0.03313668
0.0053248466 0.00902087 -0.008535384 0.04918733 0.007547755 0.052012116 0.0624913 0.021207055
-0.019008731 0.038841274 -0.0038273954 -0.03130048 0.026823336 0.023296064 0.014299561 0.0549456
0.05537269 -0.008249937 0.076642476 0.077895224 -0.0473516 -0.03930704 0.016597744 0.064859696
0.015570643 0.018281143 0.04282115 -0.026334872 0.05099913 0.03984254 -0.053633135 0.04232661
0.0031885966 -0.039713353 -0.0063115386 0.038816765 -0.0011881319 0.032741804 0.05602455 -0.04046482
-0.032577444 0.0006874438 0.02679457 0.020917246 -0.042005487 0.00027247396 0.057267338 0.009216792
0.005313269 -0.051374275 -0.03689081 0.02668511 -0.039617732 0.045908734 0.048298553 0.03406001
-0.009542612 0.06498716 -0.028645523 -0.0071131866 0.066308424 -0.0075070243 0.03837052 0.009439437
0.061376657 0.009347816 0.002249766 0.006410936 0.027022906 0.014381215 0.054927185 0.05074337
0.053905785 -0.038020782 -0.000106638996 -0.011856745 0.0458834 0.0011073755 0.014486175 0.020598533
0.018463532 -0.025169894 -0.0494359 -0.014371394 0.037230436 0.020698944 0.015263648 -0.00891757
0.018386297 0.040410537 0.024721052 0.07535466 -0.02666653 -0.031422876 0.06665435 0.0061163553
-0.00025688388 0.020285605 -0.034218192 0.0125813335 0.06749091 0.010448518 -0.040906858 -0.028990943
0.015841711 0.026938362 -0.05162444 -0.04241147 0.0053486815 0.044494864 0.032752354 0.06475021
-0.017205529 -0.03825291 0.051233668 -0.021508351 0.031263504 0.063897215 -0.018267553 -0.0146632
-0.03371314 0.046891518 0.04279749 0.02921119 0.027466225 -0.024824437 0.014324792 0.0065745665
0.04735894 0.062108103 0.031756733 0.03436853 0.053101197 0.0542282 0.06263888 -0.01796923
0.039233267 0.047517695 -0.038747575 0.06302137 0.016385337 0.0015358746 0.054512545 -0.063931316
-0.05517457 0.024336379 -0.0021654677 -0.049087793 -0.03370344 0.0004597693 0.04065498 -0.015118541

layer1.bias f4 [64]
00000000: 645e 20bd e794 13bd 433e 13bd b7a6 1e3d
00000010: 7254 24bd b15b e73b 8463 50bd 7c99 0dbd
00000020: e57f 28bd 6adc 29bd b5b0 393d f7a2 a33d
00000030: d3e3 833d 6159 483d ddfd 32bd 59c1 efbc
00000040: 068a 6d3d e293 893d 0311 d9bc c8d7 c83b
00000050: c3ed b83d 8bfa dfbc f62a 8f3d 4154 823d
00000060: b281 153c d2ec 5f3d 6545 6e3d 2a57 41bc
00000070: 466e 9dbc 751f 2f3d 2e70 ffbc 248c d83b
00000080: 5eb5 f73c 3c01 dd3c d300 6b3d fe7c 2abd
00000090: bebc f0bb 7642 2c3d a262 c7bc d62e 933b
000000a0: 1643 7ebc c55b b43c 8b2b a33c 890f dcbc
000000b0: 0829 123c 567a 153d b892 693d 6948 5bbd
000000c0: 024c 67bc 25d5 3f3d aef1 0fbc 8ff8 a7bb
000000d0: a17c 943c 12a9 7b39 6e62 8abc e340 06bd
000000e0: 540c 45bb d3fb 5ebd fbfa b3bc 7ad7 f83b
000000f0: 80bf 763c 0453 46bd 8d48 57bd 02c6 353d
-0.039152518 -0.036030676 -0.03594805 0.03873321 -0.040119596 0.007060491 -0.050876155 -0.034570202
-0.041137595 -0.04146997 0.045334537 0.079900675 0.064399384 0.048913363 -0.043699134 -0.029267
0.057992958 0.067176595 -0.02649737 0.0061292388 0.090297244 -0.027341148 0.06990616 0.063637264
0.00912516 0.05466921 0.05817165 -0.011800567 -0.019217622 0.04275461 -0.031181421 0.006608503
0.03023785 0.026978128 0.057373833 -0.041623108 -0.0073467186 0.04205557 -0.024339024 0.0044916673
-0.015518924 0.022016415 0.019918224 -0.026862876 0.008920915 0.03649362 0.057024688 -0.053535853
-0.014117243 0.04683413 -0.008785648 -0.005126066 0.018125834 0.00024000209 -0.016892638 -0.032776725
-0.0030067163 -0.054439377 -0.021970263 0.007594046 0.015060306 -0.048419014 -0.052559424 0.044378288

layer2.weight f4 [32, 64, 1, 1]
00000000: 63ce fc3d 6ea5 f03d b9e6 523d 110c abbd
00000010: 3dcc e23d 32a2 61bd 38d9 c63d db48 a9bd
00000020: 8753 0d3e 90bf 853d e92a e4bd eb90 ce3d
00000030: 76a0 bdbd b9db 0c3e c14a 103e 59eb 65bd
00000040: 269d 9cbd 677f 413d 5d59 223d f5e5 c3bd
00000050: d835 3ebd b2dc cc3d 709b e43d 3c88 38be
00000060: c8f9 b33d 6021 df3b 4166 1ebe e52c 54bd
00000070: 915a 35bd e28c 8f3d 3034 463d c95c 0fbe
00000080: 2297 d0bc 388a 573d ede3 613a 740d 803c
00000090: 0dd2 19bd e57d 59bd 2a4a 14bd 674a 91bd
000000a0: 7038 22be 8eb0 82bd aed6 3d3d d49a d7bd
000000b0: 2ea1 a93c 9193 7b3d f885 8cbc 5f15 d5bd
000000c0: 527d e9bd 71d6 26bc ed51 e93d d57b 363d
000000d0: bcd5 dd3d e818 fabd daa0 a7bd 917d 9bbd
000000e0: f36e 603d 6b8b 25bd e019 d13d d236 793d
000000f0: cc48 7dbc a865 46bd 56ce b9bd fc49 e2bd
00000100: f264 553d 1a20 fbbd 0a97 f13d 239a 12bd
00000110: cf34 b53c 8986 023d 0cac fe3c 8ca2 59bd
00000120: 16b8 363d ea80 883d 0fc1 9b3d d52e 7b3d
00000130: 03ec 853d a9eb 8b3d 1a0d de3d ffd9 3fbd
00000140: 28d0 143e 995c ed3d a49d b9bd 9de9 fabd
00000150: ed74 fabb bf29 6cbd 6444 a0bd 0a51 a23c
00000160: bb52 583e 1573 963c 5985 21bd eb8a e33d
00000170: b436 653d 3e68 e73d dd30 b13d 7fb2 293d
00000180: d387 5c3d b38f d03d cbb1 c1bb 5f7c dbbc
00000190: 520c 9dbd e997 f3bd a9fa 3a3d aed3 00bd
000001a0: 718a 653d 15dc 65bd f09b 873d 8648 223d
000001b0: f859 ddbc 3e4d d13d 0acd 4bbd f41d c0bc
000001c0: 7713 b0bd 0c39 00be a32f 203d e44c 1d3d
000001d0: ac12 7dbd 94c0 75bd 720e 0dbd 6e15 c33d
000001e0: e223 5cbc a812 54bd 4d03 293e c6c9 bcbc
000001f0: 209c 553d 0041 bf3d b02f 293d ed2d debd
00000200: 89a3 d13d c9ce 12bd 0b16 ac3b 3933 2dbd
00000210: 0a6a e2bd 9c43 ce3d 74c5 2e3d 09c3 b8bc
00000220: 7ed0 b9bc 5ba6 fb3d 7d3e c73d e5fa bfbd
00000230: 552c ccbd 85ef 693d 0397 49bd a655 ae3c
00000240: c865 5a3d a86f 78bc ce14 373c b5b6 de3d
00000250: 460b 1a3c 9e2c 903d 0f55 32bd 1aad b2bd
00000260: 074f 683d b199 cf3d 7f5e 12be b1e1 55bd
00000270: 20d3 763d 1c61 693d a83b 783d c191 c3bd
00000280: 2b8e 08be eb2c 2b3c c848 52bd 28f5 c33d
00000290: 9567 5ebd 44eb a83c c480 5bbd 9d99 89bd
000002a0: 381b babd 5ac5 993d 2a76 fb3d ee7c 9a3b
000002b0: 4928 8ebd 5089 8bbd fc4d 9cbd 8e81 e1bb
000002c0: d4a1 6d3b d270 7b3d 9d33 653d 71fb fabd
000002d0: c0ca 583d 2d19 d83d 429c 53bb 7b4d 29bd
000002e0: 9d57 f0bd 8cea d0bd b0ab 013e 50c7 f43d
000002f0: 77fa 7fbd 7fbe 653d 7ae4 fbbd b53f 9dbd
00000300: 8ec7 38bd b02c 163d a7a3 4f3d 363b 0dbd
00000310: f788 af3d f02f f2bd 5d1f debd 726c db3d
00000320: f745 da3d 14e9 b13d 809e a53d 75e0 febd
00000330: 3095 e4bd 632f 2d3d 4b74 06bd 68d9 8abd
00000340: 64b0 6abd 97ac f03d 18af 8cbc 39f7 5fbd
00000350: 9a85 73bd 5c30 e9bd 4adf de3d 77bb c1bd
00000360: 5394 04be 357c 9d3d c69f 043c 19e5 f3bd
00000370: 568c 51bd 9839 6d3d 7c11 67bc 5215 e5bc
00000380: bed2 00bc c5c0 3fbd 6d48 fc3d f9a0 10bc
00000390: 76ef f73d d29e 2dbd 32b8 a63d 449f ee3d
000003a0: 61a0 3fbd ec76 b8bd 0671 863c e316 a6bd
000003b0: 1957 94bd 4f45 c4bc 9500 51bd 0f0a df3d
000003c0: 1b9f b4bc 37ac 80bc 83d9 26bd d1c7 a5bc
000003d0: 9f6c e1bc cd87 d13c 3fbf 883d 89c0 023e
000003e0: 9c0c 58bd e0fa a73d 75bc d6bd eefd 183a
000003f0: dc92 7abd ee0e cbbd 4ace ccbd 0171 0bbe
0.12344053 0.11750303 0.051489566 -0.08351911 0.110741116 -0.055086322 0.097094 -0.08265849
0.13801394 0.06530678 -0.11140997 0.10086235 -0.09259121 0.13755693 0.14091016 -0.05613265
-0.07647161 0.04724064 0.039636005 -0.09565345 -0.04643807 0.10003032 0.1116246 -0.1802072
0.08787876 0.0068093985 -0.15468694 -0.051800627 -0.044275824 0.07009293 0.048389614 -0.14000238
-0.02546269 0.05262205 0.00086170324 0.015631415 -0.037553836 -0.053098578 -0.03620354 -0.07094269
-0.15841842 -0.063813314 0.046347313 -0.10527578 0.02070674 0.061420027 -0.017153725 -0.10404467
-0.11400856 -0.010182963 0.11392579 0.04455169 0.10831782 -0.12211782 -0.08184977 -0.07592309
0.05479331 -0.040416162 0.102100134 0.060843296 -0.015459251 -0.04843679 -0.090725586 -0.11049268
0.052098222 -0.12261982 0.117963865 -0.035791527 0.022119908 0.031866584 0.031087898 -0.053133532
0.04460915 0.066652134 0.076051824 0.06132396 0.06539156 0.06832058 0.10842343 -0.046838757
0.1453253 0.11589927 -0.09063271 -0.122515894 -0.007643333 -0.057657 -0.078255445 0.019814033
0.21125309 0.018365422 -0.03943381 0.11110481 0.055960372 0.112991795 0.08651898 0.041429993
0.05384047 0.101836585 -0.005911087 -0.026792703 -0.076683655 -0.11894209 0.045649204 -0.031451873
0.05604023 -0.05611809 0.066215396 0.039619945 -0.02702044 0.10219811 -0.049756087 -0.023451783
-0.085974626 -0.12521762 0.03910793 0.038403407 -0.061785385 -0.05999811 -0.034437604 0.09525572
-0.0134362895 -0.051775604 0.16505165 -0.023045432 0.052150846 0.0933857 0.041305244 -0.108486034
0.1023627 -0.035841737 0.005251651 -0.042285178 -0.110553816 0.10071489 0.042668775 -0.022553938
-0.022682425 0.12287589 0.097287156 -0.09374026 -0.09969393 0.05711319 -0.04921628 0.021281075
0.053319722 -0.01516334 0.011174394 0.10874692 0.009402102 0.0703976 -0.04353815 -0.08724423
0.05671599 0.10136736 -0.1429386 -0.05221719 0.06025994 0.056977376 0.060603768 -0.09549285
-0.13335483 0.010447721 -0.05133894 0.09568244 -0.054298002 0.020619996 -0.053589597 -0.067187525
-0.09087223 0.07508345 0.122783974 0.0047146 -0.069412775 -0.068133 -0.07632062 -0.006881899
0.0036259787 0.06138689 0.055957425 -0.1225499 0.052927732 0.10551677 -0.0032289182 -0.041333657
-0.11735461 -0.10200986 0.1266315 0.11952078 -0.06249472 0.056089874 -0.12299438 -0.07678167
-0.045112185 0.03666371 0.05069318 -0.034480296 0.08571046 -0.118255496 -0.10845826 0.10714044
0.10657876 0.08687034 0.08086872 -0.124451555 -0.11161268 0.04228152 -0.03282575 -0.06779748
-0.057297125 0.11751669 -0.017173335 -0.05467913 -0.059453584 -0.11386177 0.10882433 -0.09459584
-0.12947206 0.07689706 0.008094734 -0.11908931 -0.051159225 0.057916254 -0.01410329 -0.027964268
-0.007862745 -0.0468147 0.123185016 -0.008827441 0.121062204 -0.04238779 0.08140601 0.11651471
-0.04678381 -0.090070575 0.016411316 -0.08109834 -0.07243175 -0.02395883 -0.051025946 0.108905904
-0.022048524 -0.015707118 -0.04073478 -0.020236881 -0.027517615 0.02557745 0.06677102 0.12768759
-0.0527464 0.082021475 -0.10485164 0.00058361783 -0.061175212 -0.09914957 -0.10000284 -0.13617326

layer2.bias f4 [32]
00000000: fe56 b23c 499a 92bd c9fb 163d 106e a13c
00000010: 7c87 f93d 29ac a4bd 6f34 aabd 53aa f33d
00000020: 1cd6 e6bd 8f74 e4bc dabe c83d affd d4bc
00000030: 0284 7abd 8627 eabd ea3f 31bd 22f7 d5bd
00000040: a802 f03c eb9b dabd 403b e0bd 3495 8c3d
00000050: 2469 663d 5041 183d e38a 2a3c 249f d5bc
00000060: 16ab 45bd 9b03 aebd d537 d1bc 1e93 82bd
00000070: 3957 6e3d a1b7 cfbc d048 e1bd 2c58 4cbd
0.021769997 -0.07158334 0.036861215 0.019705802 0.12184045 -0.080406494 -0.08310782 0.11897721
-0.11271307 -0.02788761 0.09802027 -0.025999872 -0.06116105 -0.1143332 -0.043273844 -0.104475275
0.029298142 -0.1067427 -0.10948801 0.06864396 0.056252614 0.03717166 0.01040909 -0.02607686
-0.048258863 -0.084967814 -0.025539318 -0.063757166 0.05818865 -0.025356116 -0.11000216 -0.049888775

layer3.weight f4 [3, 32, 5, 5]
00000000: 5419 eabc 34dc 5bbd 32c5 2cbd 36a3 42bd
00000010: 0276 a93b e723 ac3c e7a1 51bc 3d88 cfbc
00000020: b89f 61bd d8a5 27bd d2d8 083d 3a6e 603c
00000030: d136 5dbd 4a46 5abc b4f3 33bd 8bdc 343d
00000040: ee99 393d 29ed babc ed05 69bd df25 f83a
00000050: 175b cbbc 69c1 bc3b dc8d f2bc e129 babc
00000060: 0b80 aa3c d722 8ebb 3e51 51bc 45b0 f3bc
00000070: dd96 2e3c e2d1 96bc aa79 28bc d8eb b83b
00000080: a586 e7bb b14a d2bc 4519 63bb 94a4 183d
00000090: 9b24 92bc f663 cdba 90bd 44bc d6ae 0c3d
000000a0: 69e9 0e3d f4e9 4dbc 4a00 c0bc dee0 1a3c
000000b0: 4ac9 72bc 09fa cc3c 2fce 043c 3383 903b
000000c0: c59d d13c cb8a b9bc 79bb 883c 24d1 9b3c
000000d0: 11fe dc3c 0570 033c c990 3bbc 3233 01bd
000000e0: aebd 673b da98 543b 5aec 6b3c 68cc a0bc
000000f0: 1f90 213d 2549 13bb 769f 89bc 80f8 803c
00000100: 9ba2 143d 576f 39bc 86c9 ca3b 353f 00bd
00000110: 2e7d ea3c cbd8 35bc 6b44 ea3c 777f d83c
00000120: 396a 72bc c9b4 2c3c 6459 1a3d 49f7 f1ba
00000130: 24db d5bc bf1b 793b 9a0a f13c 490f 533b
00000140: e4ab 163d 3073 063d 4321 9f3c 765a 1a3d
00000150: c981 003d d1e2 bcba 881b 6fbc ddd6 163c
00000160: 4e86 4e3c e001 b2bc 85cb 0cbb 46e3 82bc
00000170: 2cfd 56bc dd98 38bc 964c 2fbc 66cb 583c
00000180: 0ce4 f2bc b671 103d 5b72 c2bc c264 a7bc
00000190: ade3 b1bc 9480 0fbc 66fd d4bc a86b 723c
000001a0: 6055 dd3c ea7b 97bc ff6c fa3b df27 783c
000001b0: 5f21 2ebc c64e b23c 74d3 29bc c657 c8bb
000001c0: 3eb5 1b3d da88 c5bc 425f da3c d022 153d
000001d0: 9368 bb3c 15bb 733c 9809 07bd 84de 1ebc
000001e0: 0d84 023d a19a 20bc b536 503c c7a4 08bd
000001f0: 17c7 a2bc 985f 573b ceb6 bfbc 46ae cabc
00000200: 0a7f 7e3c 1c7a 14bc bf46 a83c 4865 b93c
00000210: c22a 79bb aa09 133d 553e 39ba d581 2c3c
00000220: 6bcd b83c 3d37 753c 9c09 993c 326b d33b
00000230: f0a9 ce3c df8b e93a 1c59 5f3c cb63 d43c
00000240: 0fd6 073d 730f fdbc b2f4 c23b 92bc 21bc
00000250: 00a7 303c e580 063b d155 fc3c 5bc9 4b3d
00000260: be19 3e3d ef7f 843c 6fe2 ac3b aef2 aabc
00000270: f87c 3e3c 1bda 483c 3791 2dbc 36bb 26bc
00000280: 6e1e 11bd 0078 c0bc 569e babc e845 f6bc
00000290: 58e8 1f3c e154 b83b 7b07 9cbc 8251 ab3c
000002a0: fe87 863b 14e7 dd3b e15d 09bc 4147 703c
000002b0: 687b 8f3b e5b7 493d c18b 483c adde 0a3d
000002c0: d6d8 973c 1c88 13bd 71ca e0bc 9986 b6bc
000002d0: b954 13ba ae9e dd3c dd23 a7bc ea56 cfbc
000002e0: 216d 0abc 2214 b8bc 2ca0 efbc 7742 023c
000002f0: 89c3 aebc 0049 b6bb 2a0b 043d 0e46 adbb
00000300: e1e1 5b3b b7cf f5bc 5717 94bc 419e 0d3c
00000310: 05fe 3b3c d93f c33c e346 54bb df80 853b
00000320: e0f4 c1bc 5390 00bb 2cb0 c63b efea c23c
00000330: aef0 ee3c 93f1 d63c 93e2 323b 1c9b 8a3c
00000340: 0f4b aabc d8ff ce3c ea59 193d 5f46 1b3c
00000350: a158 013c 32e6 c9ba 771f 87ba fde2 e83c
00000360: e6c7 a1bc 6fa6 2d3b c53f ae3c 50c3 af3b
00000370: 9edb bbbc 8087 c33c d6f1 ff3b 1ac4 59bb
00000380: e403 b43c ddac 833c 30a0 843c 2429 ef3c
00000390: 9367 da3c 2b10 233d 5a48 813b 6016 d4bb
000003a0: 372c ea3c 0b0d 123c bed3 acbc 2b80 5abb
000003b0: 62a9 f93c ed75 14bc 4826 2b3b 6e5e 973c
000003c0: 806e 5b3b 017e da3c 5a2b b6bc f21c be3c
000003d0: 403d 093b 6caa dcbc ece0 d4bc d5aa 85bc
000003e0: f9b2 993c 321d fe3c 88d0 e7bc 4b92 b0bc
000003f0: 7389 8f3c 9805 fa3b 42ff f53c 2247 083d
-0.02857653 -0.0536768 -0.042180248 -0.04751893 0.0051715383 0.021013213 -0.012794948 -0.025333518
-0.05508396 -0.040929645 0.0334099 0.013698155 -0.054007355 -0.013322422 -0.043933585 0.04415564
0.045312814 -0.022818165 -0.056890417 0.0018932185 -0.024823708 0.005760361 -0.02960866 -0.022725048
0.020813009 -0.0043376493 -0.012775717 -0.029747138 0.010656086 -0.018410627 -0.010282913 0.005643349
-0.0070656114 -0.025670381 -0.0034652513 0.03726633 -0.01783972 -0.001567005 -0.012008086 0.034346424
0.034890566 -0.012567986 -0.023437638 0.009453027 -0.014818499 0.02502157 0.008105799 0.0044101714
0.025587926 -0.02264919 0.016690956 0.019020624 0.026976617 0.008022313 -0.011448094 -0.031542964
0.003536086 0.003243974 0.014399612 -0.019628718 0.039444085 -0.0022474017 -0.01679967 0.015743494
0.036287885 -0.011318049 0.0061885742 -0.03131028 0.028624143 -0.011099051 0.028597077 0.026427967
-0.014795833 0.010541149 0.037682906 -0.0018460538 -0.026105471 0.0038010923 0.029424 0.0032205156
0.03678502 0.032824695 0.01942504 0.037683927 0.031373773 -0.0014410858 -0.014593966 0.009206501
0.012605263 -0.02172941 -0.0021483612 -0.015977513 -0.013121884 -0.011266914 -0.010699412 0.013232088
-0.029649757 0.035264693 -0.02373617 -0.020433787 -0.02171501 -0.008758683 -0.025999736 0.014796175
0.027018249 -0.018491704 0.007642388 0.015146225 -0.0106280735 0.021766078 -0.010365356 -0.006113979
0.038014643 -0.024113107 0.02665675 0.036410153 0.022877013 0.014876147 -0.032968134 -0.009696607
0.031864215 -0.009802491 0.012708356 -0.03336027 -0.019870324 0.0032863375 -0.023402598 -0.024741303
0.015533218 -0.009062316 0.020541547 0.022631302 -0.003801987 0.03589789 -0.0007066478 0.010529001
0.022558888 0.014966783 0.01868134 0.0064519877 0.025227517 0.0017818174 0.013632085 0.025926491
0.033163127 -0.030891156 0.00594958 -0.009871619 0.010782003 0.0020523604 0.03080264 0.049752574
0.04641127 0.016174285 0.0052760164 -0.020867672 0.011626475 0.012259032 -0.010593704 -0.0101764705
-0.03542941 -0.02349472 -0.022780579 -0.03006263 0.009759985 0.0056253527 -0.019046536 0.02091289
0.004105567 0.0067719314 -0.008384199 0.014665426 0.004378725 0.04924764 0.012240351 0.033903766
0.018536013 -0.036018476 -0.027440282 -0.022280978 -0.00056202296 0.027053203 -0.020402843 -0.025309999
-0.00844887 -0.022470538 -0.02925118 0.007950417 -0.021333473 -0.0055629015 0.03223721 -0.005287892
0.0033551382 -0.030006273 -0.018077536 0.008643688 0.011474137 0.023834156 -0.0032390885 0.0040742005
-0.023676336 -0.0019617274 0.006063482 0.023793666 0.0291675 0.026238238 0.0027295693 0.016919665
-0.020787744 0.02526848 0.037439264 0.009477227 0.007894666 -0.0015403687 -0.001030906 0.028428549
-0.01974864 0.0026496907 0.021270642 0.0053638592 -0.02293187 0.023868322 0.0078108115 -0.0033228458
0.021974511 0.016073639 0.016189665 0.029194422 0.026660716 0.03981034 0.0039453926 -0.006472394
0.028585536 0.0089142425 -0.02109706 -0.0033340554 0.030476276 -0.009061319 0.0026115347 0.018477645
0.0033482611 0.026671411 -0.022237469 0.023207162 0.002094105 -0.026936732 -0.025986157 -0.01631681
0.018762099 0.03101978 -0.028297678 -0.021554133 0.017521596 0.0076300614 0.030028943 0.033270963

layer3.bias f4 [3]
00000000: 41f1 b5bc 8421 e0bc 4201 613c
-0.022209765 -0.027359731 0.01373321
